Session 9 - Advanced Convolutions, Data Augmentation and Visualization/weights/20240329_212938_32_64_128_224.pt (torch, 849792 bytes, 74 tensors)

weight f4 [3, 1, 3, 3]
0	0xbfb42e88	-1.40767
1	0xbec587ad	-0.38580075
2	0x3e1e7357	0.15473686
3	0x402246ce	2.5355716
4	0x3f802bd6	1.0013378
5	0xbf259511	-0.6468058
6	0x3eef6b4c	0.4676155
7	0x3f48ce38	0.78439665
8	0xbf785ef2	-0.97019875
9	0xbee68426	-0.45022696
10	0xbf46ce8f	-0.77658933
11	0x3de263c6	0.110541865
12	0x3e5f48da	0.21805134
13	0x40576e74	3.3661165
14	0xbfa48d97	-1.285571
15	0xbfb7f239	-1.4370795
16	0x407350dd	3.8018105
17	0xc017a9e1	-2.3697436
18	0xbebf8d8c	-0.3741268
19	0x3f009432	0.5022613
20	0xbf53f4ad	-0.8279522
21	0x3fcad4bf	1.5846175
22	0x4028d103	2.637757
23	0xbfac35b2	-1.3453887
24	0xbeaf834d	-0.34279862
25	0xbf10b6a3	-0.5652868
26	0x3e14436c	0.14478844

weight f4 [32, 3, 1, 1]
0	0x3ed1629c	0.40895545
1	0x3e9433ab	0.2894567
2	0xbf2cc464	-0.6748717
3	0x3e1df2d4	0.15424663
4	0x3eb38822	0.350648
5	0xbf81f217	-1.0152005
6	0x3e400292	0.1875098
7	0x3eef5b1d	0.467492
8	0xbecbfba0	-0.39840412
9	0x3eff0404	0.4980775
10	0xbf5439ca	-0.8290068
11	0x3dcd120e	0.10013209
12	0x3f07be82	0.53025067
13	0xbe833dd1	-0.256331
14	0x3eb7af63	0.35875997
15	0x3f0594c4	0.52180123
16	0xbe4562e6	-0.19276008
17	0x3e79f988	0.24411595
18	0xbef8b1b5	-0.4857308
19	0x3f51db42	0.81975186
20	0xbded7c52	-0.11595978
21	0xbecd2ed9	-0.40074804
22	0x3ebcb06f	0.36853358
23	0x3f1ffa33	0.6249115
24	0xbeca2311	-0.3947988
25	0xbdc2beba	-0.095090345
26	0x3f5dc751	0.8663226
27	0xbf631fea	-0.8872057
28	0x3fe14885	1.7600256
29	0xbf1f9b86	-0.62346685
30	0x3f16ea43	0.58951205
31	0xbf2db372	-0.67851937
32	0xbe8830ad	-0.26599637
33	0xbdeedef8	-0.11663622
34	0xbe1fad30	-0.1559341
35	0x3f1691ff	0.5881652
36	0x3e83bcd3	0.2573
37	0xbf66d622	-0.9017049
38	0x3edd7e9f	0.43260667
39	0x3ea20287	0.31642553
40	0x3d5f4f63	0.05451907
41	0xbf6d25fd	-0.9263609
42	0xbf453213	-0.7702953
43	0x3e24e067	0.16101228
44	0x3f45fcf4	0.773391
45	0xbf354fb0	-0.7082472
46	0x3e62a231	0.22132184
47	0x3f2a2ec3	0.664776
48	0x3f30f118	0.6911788
49	0xbfacb9f3	-1.3494247
50	0x3ef08f38	0.46984267
51	0xbeca4575	-0.39506117
52	0xbe572fd8	-0.21014345
53	0x3f4b412c	0.7939632
54	0xbeb95856	-0.36200207
55	0xbee1e953	-0.44123325
56	0x3efd0cbf	0.49423787
57	0x3f4a7c93	0.79096335
58	0xbcd33bf2	-0.02578542
59	0xbee96b13	-0.45589504
60	0x3ebb2003	0.3654786
61	0xbea7e1ad	-0.32789364
62	0x3efeb285	0.49745575
63	0xbf0da90a	-0.5533606
64	0x3ec0f792	0.3768888
65	0xbe9e0fcb	-0.30871424
66	0xbe5edfe5	-0.21765096
67	0x3e9da98c	0.30793417
68	0x3ddaafed	0.106780864
69	0xbead39e1	-0.3383322
70	0xbe0db444	-0.13838297
71	0xbe801014	-0.25012267
72	0x3f288e22	0.6584188
73	0xbf97f7c3	-1.1872486
74	0x3e99d552	0.30045563
75	0x3e468e7b	0.1939029
76	0x3e697164	0.22797161
77	0x3e588ec9	0.21148218
78	0xbf29b4d9	-0.66291577
79	0xbe780207	-0.24219523
80	0x3f2d1062	0.67603123
81	0xbf3a6f8d	-0.72826463
82	0xbd996484	-0.07489875
83	0x3ea9e65e	0.3318357
84	0x3e6bb568	0.2301842
85	0x3f0a6e97	0.54074997
86	0xbed92482	-0.42410666
87	0xbeb9caca	-0.36287528
88	0xbd82f8e6	-0.0639513
89	0xbe95a218	-0.2922523
90	0x3e82578e	0.25457424
91	0xbf1382a9	-0.57621247
92	0xbebe662e	-0.37187332
93	0x3efb3179	0.49061182
94	0x3e3909eb	0.1807019
95	0xbf6fc41d	-0.9365862

weight f4 [32]
0	0x3e9e75bc	0.309492
1	0x3eca2f88	0.39489388
2	0x3f101637	0.562839
3	0x3ef0496f	0.46931025
4	0x3f1a92c4	0.60380197
5	0x3ec67e33	0.38768157
6	0x3ece4599	0.40287474
7	0x3f097b75	0.53704005
8	0x3f03990e	0.5140542
9	0x3f144225	0.5791343
10	0x3ed8a03b	0.42309746
11	0x3eab1dc9	0.33421162
12	0x3ed6e316	0.41970128
13	0x3eba67ea	0.36407405
14	0x3edbce06	0.4293062
15	0x3e941127	0.28919336
16	0x3f15bab4	0.5848801
17	0x3ecb27f2	0.39678913
18	0x3f25dd54	0.64790845
19	0x3edcb978	0.4311025
20	0x3e8b6299	0.27223662
21	0x3ebd64f1	0.36991075
22	0x3dc30700	0.095228195
23	0x3f07a760	0.5298977
24	0x3ec2645b	0.3796719
25	0x3ee2cdea	0.44297725
26	0x3e7ebf3e	0.2487764
27	0x3f090638	0.53525114
28	0x3f027b5f	0.509695
29	0x3ed41d0e	0.41428417
30	0x3ee90d28	0.4551785
31	0x3ee20587	0.44144842

bias f4 [32]
0	0x3c3e49ea	0.011614302
1	0x3cf251de	0.029580053
2	0x3d311d81	0.043241028
3	0x3d9c9f6d	0.076475956
4	0x3e15e17d	0.14636798
5	0x3dd1f6b4	0.10252133
6	0x3dab97f3	0.083785914
7	0x3e167668	0.14693606
8	0x3df3c68b	0.119031034
9	0x3dbd28c3	0.0923629
10	0x3d1e8ac1	0.038706545
11	0x3dc0dfad	0.09417663
12	0xbd4814c3	-0.048847925
13	0x3d7f1546	0.062276147
14	0x3e388514	0.18019515
15	0x3d40f265	0.047106165
16	0x3d9eab55	0.07747523
17	0x3dc91d52	0.098200455
18	0x3daed7a6	0.085372254
19	0x3dfa79c5	0.12230257
20	0x3d37acce	0.044842534
21	0xbf06ed54	-0.52705884
22	0xbea91726	-0.33025473
23	0x3d96f8a9	0.07371647
24	0x3c787690	0.015164986
25	0x3e21053b	0.15724652
26	0x3c07d8a6	0.008291399
27	0x3d6e464d	0.058172513
28	0x3d8a6334	0.06757203
29	0xbd4dd3e9	-0.05025092
30	0x3d2e223d	0.04251312
31	0xbb58c2aa	-0.0033075013

running_mean f4 [32]
0	0x3e8d626e	0.27614158
1	0x3f13be5f	0.5771236
2	0x3e92702c	0.28601205
3	0x3eb86d30	0.36020803
4	0x3ed93e3b	0.4243029
5	0x3ec62f7c	0.38708103
6	0x3eadb2c1	0.3392544
7	0x3ee3d416	0.44497746
8	0x3eb9f5e0	0.363204
9	0x3f2f31c3	0.68435305
10	0x3edbc550	0.42923975
11	0x3e832821	0.25616553
12	0x3ec86657	0.3914058
13	0x3f12a824	0.5728781
14	0x3ec8ba88	0.39204812
15	0x3eb59e58	0.3547237
16	0x3f00b278	0.5027232
17	0x3e9c88f2	0.3057323
18	0x3eedc51a	0.4643944
19	0x3ebfb28c	0.37440908
20	0x3ebc280e	0.3674931
21	0x3f11ef7f	0.5700607
22	0x3e38cf8e	0.18047926
23	0x3f336c11	0.7008677
24	0x3eeb4660	0.4595213
25	0x3ec9fb79	0.3944967
26	0x3eff7760	0.49895763
27	0x3f1f9ed6	0.6235174
28	0x3eb1c29c	0.34718788
29	0x3f322766	0.6959137
30	0x3f2b403b	0.6689488
31	0x3ece493e	0.40290254

running_var f4 [32]
0	0x3e810e28	0.25206113
1	0x3eee0785	0.46490112
2	0x3e97f7e5	0.29681316
3	0x3f243f11	0.6415873
4	0x3ef49942	0.47773176
5	0x3eca502e	0.39514297
6	0x3f2761a3	0.65383357
7	0x3f21ce80	0.6320572
8	0x3ecb96ab	0.39763388
9	0x4031a32d	2.7755845
10	0x3f1ea7d5	0.6197484
11	0x3e3f75a2	0.18697217
12	0x3f2e5a4a	0.6810652
13	0x3eed3308	0.46327996
14	0x3ef092b9	0.4698694
15	0x3ed25031	0.41076806
16	0x3fbe34e2	1.4859889
17	0x3e92d5f1	0.2867885
18	0x3ede69cf	0.434401
19	0x3ecefc8d	0.40427056
20	0x3ebb8462	0.36624438
21	0x3f01e925	0.50746375
22	0x3e0a8bc0	0.13529873
23	0x3f4dd4dc	0.8040292
24	0x3f9b7d2b	1.2147573
25	0x3eea9653	0.45817813
26	0x3ef3efa2	0.47643763
27	0x3f237065	0.63843375
28	0x3eda1ff5	0.42602506
29	0x3f467b51	0.77531916
30	0x3f64acde	0.89326274
31	0x3eb1d91d	0.34735957

weight f4 [32, 1, 3, 3]
0	0xbce5783f	-0.02801144
1	0x3e14283e	0.14468476
2	0x3d29a004	0.04141237
3	0x3f07eec9	0.5309873
4	0x3f103701	0.5633393
5	0x3dd6e866	0.10493545
6	0xbeb548da	-0.35407144
7	0xbe3eab08	-0.1861993
8	0xbe2f6c3e	-0.17131135
9	0x3d8cb56b	0.0687054
10	0x3d8203e3	0.063483976
11	0xbcde4c13	-0.027135884
12	0x3e948dd3	0.29014453
13	0xbd60dfdf	-0.054901
14	0xbf1e3cb1	-0.6181136
15	0x3e249458	0.16072214
16	0xbe36de2b	-0.17858188
17	0xbf093755	-0.53600055
18	0xbdf984cd	-0.12183533
19	0x3d9e2465	0.077217855
20	0x3f1de598	0.6167846
21	0x3d58d642	0.052938707
22	0xbe428a79	-0.18998136
23	0xbd496ef8	-0.049178094
24	0xbcfb6f2a	-0.030692656
25	0xbcc243ff	-0.023714064
26	0xbe8863e8	-0.26638722
27	0xbd0dc270	-0.03460926
28	0x3d2ad2fa	0.04170511
29	0xbea0a255	-0.3137385
30	0xbdf61320	-0.120153666
31	0x3e91604a	0.28393775
32	0xbf102f2f	-0.56321996
33	0xbdfaff29	-0.12255699
34	0x3e791f88	0.24328434
35	0xbe98c4bb	-0.29837593
36	0x3df77111	0.120821126
37	0xbd3fe5b9	-0.04684994
38	0xbe566a0a	-0.20938888
39	0x3d544599	0.051824186
40	0xbec552fe	-0.3853988
41	0xbe96dc88	-0.29465127
42	0x3eb4606b	0.3522981
43	0x3eda1132	0.42591244
44	0x3e650a29	0.22367157
45	0xbe6e0d51	-0.23247267
46	0xbe91e1db	-0.28492627
47	0xbe92cdb3	-0.2867256
48	0xbea9efc0	-0.33190727
49	0xbdce40ac	-0.10070929
50	0xbe7ea301	-0.24866869
51	0x3dfd686f	0.12373435
52	0x3ecd2621	0.40068153
53	0x3e9933a5	0.29922214
54	0xbe9ad041	-0.3023701
55	0x3ec75c75	0.38937727
56	0xbd876598	-0.06611174
57	0xbee1f3b3	-0.4413124
58	0x3f1a2682	0.6021501
59	0xbe55f38d	-0.20893688
60	0xbe6251b8	-0.22101486
61	0x3f00caa3	0.503092
62	0xbd82e916	-0.06392114
63	0xbda03c2a	-0.078239754
64	0xbcfd08e0	-0.030888021
65	0x3d0048e6	0.03131952
66	0xbef1f238	-0.4725511
67	0x3de02cfd	0.10946081
68	0x3e12dac3	0.14341263
69	0xbe8d8151	-0.27637723
70	0xbebaae50	-0.36461115
71	0x3d1dd58c	0.038533732
72	0xbe0c3241	-0.13691045
73	0xbed53b3c	-0.41646755
74	0xbe8bc9a3	-0.27302274
75	0x3ef90d67	0.48643038
76	0x3ec23f4b	0.37938914
77	0xbe657818	-0.22409093
78	0x3e0df321	0.13862278
79	0x3df9dfd8	0.12200898
80	0xbdb1cc10	-0.086815
81	0x3dfb1f43	0.12261822
82	0x3ee3ded6	0.44505948
83	0x3e789628	0.2427603
84	0x3e7ad0a2	0.2449365
85	0x3ef37f0b	0.47557864
86	0x3ed752af	0.4205527
87	0xbd19e113	-0.037568163
88	0x3e2967d2	0.1654351
89	0x3e2ad5fc	0.16683191
90	0xbe38c402	-0.18043521
91	0xbef5df24	-0.48021805
92	0xbd93b868	-0.07212907
93	0x3e6fcf7b	0.23418991
94	0xbed46164	-0.41480553
95	0xbdebeb25	-0.1151946
96	0x3ed9694d	0.4246315
97	0x3e5f8915	0.21829636
98	0xbde98cd5	-0.11403815
99	0xbeed6401	-0.4636536
100	0xbea2f3ea	-0.31826717
101	0x3d3a9334	0.04555054
102	0xbe50f450	-0.20405698
103	0x3e3149eb	0.17313354
104	0x3eeb7c03	0.4599305
105	0xbd488395	-0.04895361
106	0x3eaf615f	0.34253976
107	0x3ec32ed3	0.38121662
108	0x3e9ac947	0.30231687
109	0x3e3414be	0.17586038
110	0xbe704384	-0.23463255
111	0x3e84b685	0.259205
112	0x3ef9856d	0.48734608
113	0x3e6ee175	0.23328193
114	0xbdd58f4b	-0.104277216
115	0x3e7b0a00	0.24515533
116	0x3ec55b0b	0.38546023
117	0x3dcce0a7	0.100037865
118	0x3da8d9e9	0.08244688
119	0xbd2ccfcb	-0.042190354
120	0xbeac1494	-0.3360945
121	0xbe7f92dc	-0.24958366
122	0x3d3e79ce	0.04650288
123	0xbee49a23	-0.44648847
124	0xbeb6ee09	-0.3572848
125	0x3dd28b8c	0.10280523
126	0x3e0d785f	0.13815449
127	0xbe377e1d	-0.17919202
128	0x3dc2476e	0.094862804
129	0x3dd9bbd0	0.106315255
130	0x3ed58d31	0.41709283
131	0x3b9eb4da	0.0048433365
132	0xbef36cfd	-0.4754409
133	0x3e8debec	0.27719057
134	0x3ead6e41	0.3387318
135	0x3ec3876f	0.38189265
136	0xbe53a1a9	-0.20667137
137	0xbe33053e	-0.17482468
138	0x3e89f065	0.2694122
139	0x3d8ce1d2	0.06879009
140	0xbf4699cb	-0.7757842
141	0xbe75d071	-0.24005295
142	0x3d9de60d	0.07709894
143	0xbe803b0b	-0.25045046
144	0x3e9137cf	0.2836289
145	0x3eb9f493	0.36319408
146	0x3dabf11d	0.08395598
147	0x3eedba9f	0.46431443
148	0x3ea6743d	0.32510558
149	0x3d1724a3	0.036900174
150	0x3e60e6d0	0.21963048
151	0x3d9a5d63	0.07537343
152	0xbe09507d	-0.1340961
153	0x3dcadd4e	0.09905492
154	0xbe93b4dd	-0.28848925
155	0xbe4f545a	-0.20247021
156	0x3e5a8299	0.21338882
157	0x3eb30e2b	0.34971747
158	0x3e4987d0	0.19680715
159	0xbe3e3efb	-0.18578713
160	0x3e8c76f8	0.27434516
161	0x3edbe49d	0.42947856
162	0xbdbb21bd	-0.091372944
163	0xbe898967	-0.26862642
164	0xbe86c94b	-0.2632545
165	0xbe617f1e	-0.22021148
166	0x3e5fcfd0	0.21856618
167	0x3ed8d284	0.4234811
168	0xbc2534d5	-0.010083397
169	0x3c1206be	0.00891274
170	0x3e49e144	0.19714838
171	0xbd850728	-0.064955056
172	0x3d456381	0.048190597
173	0x3e053738	0.13009346
174	0xbe922216	-0.2854163
175	0x3d7b60a5	0.061371464
176	0x3f064693	0.5245144
177	0xbd0b3c3d	-0.033992995
178	0x3e2b8029	0.16748108
179	0x3eb9582b	0.3620008
180	0xbe8ccefc	-0.27501667
181	0xbdb7f554	-0.089823395
182	0x3e8649cf	0.26228186
183	0xbef54c35	-0.47909704
184	0x3e218051	0.15771605
185	0x3eefb5f0	0.46818495
186	0xbc83290b	-0.016010782
187	0x3eee3ca7	0.4653065
188	0x3ef696ff	0.48162076
189	0xbcda24fd	-0.026628966
190	0xbe550baa	-0.2080523
191	0xbe3bc22b	-0.18335788
192	0xbe083dbf	-0.13304804
193	0xbe6c3c9f	-0.2307
194	0xbe711bc5	-0.2354575
195	0xbd9f22cf	-0.07770311
196	0xbe171456	-0.14753851
197	0xbe20dd3c	-0.15709394
198	0xbe5f0eb0	-0.21782947
199	0xbe9cf261	-0.3065367
200	0xbea660f4	-0.32495844
201	0xbe6751c6	-0.22589788
202	0xbe7e3221	-0.2482381
203	0xbe8b4884	-0.27203763
204	0xbe81c914	-0.25348723
205	0xbe67f09b	-0.22650377
206	0xbe56aaab	-0.20963542
207	0x3cae8798	0.02130489
208	0xbe836304	-0.2566148
209	0xbe92a8ff	-0.2864456
210	0x3e22bbba	0.15891925
211	0xbe9207f0	-0.2852168
212	0xbebfd038	-0.37463546
213	0x3ee2aa91	0.44270757
214	0x3f02d734	0.51109624
215	0x3e01cf7b	0.12676804
216	0xbe782eab	-0.24236552
217	0x3e96d47e	0.29458994
218	0x3ee908e2	0.4551459
219	0x3d4a8b29	0.04944912
220	0x3ed5e90b	0.4177936
221	0x3ef35b61	0.47530654
222	0x3ca8077d	0.020511383
223	0x3ea3cdc3	0.3199292
224	0x3d46c97c	0.048531994
225	0xbe56aee8	-0.20965159
226	0xbea60d56	-0.3243205
227	0xbe90bff8	-0.2827146
228	0x3e8cb8e5	0.27484813
229	0x3e227d85	0.15868194
230	0xbea2ec83	-0.3182107
231	0x3e87189d	0.26385966
232	0x3e984fd6	0.2974841
233	0xbe859014	-0.26086485
234	0xbde6a43a	-0.112617925
235	0x3e5ea937	0.21744238
236	0x3e90916f	0.28235957
237	0x3ed2c6b3	0.4116722
238	0x3f2b91bb	0.6701924
239	0x3ec1c9d8	0.37849307
240	0xbe05887d	-0.13040347
241	0xbe56f052	-0.20990112
242	0xbe9cc6c7	-0.30620405
243	0xbdf7be3c	-0.12096831
244	0x3e56c27f	0.20972632
245	0x3eee8fed	0.46594182
246	0xbe9edb84	-0.31026852
247	0xbe3d2353	-0.18470506
248	0x3eac3b86	0.33639163
249	0xbdc0636b	-0.093939625
250	0x3e54fef8	0.20800388
251	0x3e1b2839	0.15152062
252	0xbe9478ec	-0.28998506
253	0xbef88c2b	-0.4854444
254	0xbc9045ad	-0.017611349
255	0xbe2e0512	-0.16994122

weight f4 [32, 32, 1, 1]
0	0xbe54b2ca	-0.20771328
1	0xbe7668dd	-0.2406344
2	0xbed627bc	-0.4182719
3	0xbd9e8c5f	-0.077416174
4	0x3db1ff2e	0.0869125
5	0x3ce6cb47	0.028173102
6	0xbb07bd72	-0.0020712283
7	0xbe727de6	-0.23680839
8	0x3d156a37	0.036478247
9	0x3e279d41	0.16368581
10	0xbe03f0ae	-0.12884781
11	0xbd8e28fc	-0.06941411
12	0xbeab7616	-0.3348853
13	0x3c7fb4c6	0.015607065
14	0x3c7dd8ac	0.015493553
15	0x3dfa58d7	0.12223976
16	0x3dcdb19f	0.10043644
17	0xbe94cb70	-0.2906146
18	0xbea2b0af	-0.31775424
19	0x3ddaebc0	0.10689497
20	0xbdbd6d32	-0.09249343
21	0x3e7c7486	0.24653825
22	0x3edc4b73	0.43026313
23	0xbe1514a8	-0.14558661
24	0x3cf2e445	0.029649863
25	0xbd91eee4	-0.07125643
26	0x3ec3b1d9	0.38221624
27	0x3dcb28c0	0.09919882
28	0x3e2457eb	0.16049163
29	0xbe50130d	-0.20319767
30	0xbd2f8ca5	-0.04285874
31	0x3d819e12	0.06328978
32	0x3e51c06b	0.20483558
33	0xbe732c72	-0.23747423
34	0xbd9a325b	-0.07529136
35	0x3da0a3d0	0.07843745
36	0xbdd0c99e	-0.101947054
37	0xbe189026	-0.14898738
38	0xbb893fed	-0.0041885288
39	0xbbab8b81	-0.005235136
40	0x3a860107	0.0010223695
41	0x3ebc7d7f	0.36814496
42	0x3d244661	0.04010618
43	0xbdee20b8	-0.11627334
44	0xbed8a1f5	-0.42311063
45	0xbcb1ed14	-0.021719493
46	0xbcc87cc5	-0.024473557
47	0xbe05e46d	-0.13075419
48	0xbf0fd651	-0.56186396
49	0xbdc40b40	-0.09572458
50	0x3c49cb73	0.0123165725
51	0xbd81773f	-0.063215725
52	0xbe84c780	-0.25933456
53	0x3d87d5da	0.06632586
54	0x3d9ad83b	0.07560774
55	0xbd2be6bf	-0.041968103
56	0xbebb6e3f	-0.3660755
57	0x3b9a7b18	0.004714381
58	0xbe92f9bf	-0.28706166
59	0x3dd16af1	0.102254756
60	0xbe3795c8	-0.17928231
61	0x3dad8a1d	0.08473609
62	0xbe2af80b	-0.16696183
63	0x3da9a658	0.08283681
64	0x3dc1b671	0.09458626
65	0xbd10c0ba	-0.03534005
66	0x3e074baa	0.13212457
67	0xbe102912	-0.14078167
68	0x3d9a5082	0.07534887
69	0x3ea124ae	0.31473297
70	0xbec10aee	-0.3770365
71	0x3e043295	0.1290992
72	0x3e1a3e3b	0.15062802
73	0xbcab5d28	-0.020918444
74	0x3dd6ba2b	0.104847275
75	0x3db18e58	0.08669728
76	0x3e3091e9	0.1724316
77	0xbdfe5a8f	-0.124196164
78	0x3e0593ab	0.13044612
79	0xbd354a21	-0.044260148
80	0x3e1c38fc	0.15256113
81	0x3d82c97b	0.063860856
82	0x3e08031f	0.1328244
83	0x3d75ef1f	0.060042497
84	0x3e25698c	0.16153544
85	0xbf36e7f2	-0.7144767
86	0xbece4bb3	-0.4029213
87	0xbdaccbc1	-0.084373005
88	0x3c7f5f0d	0.015586627
89	0x3ea9ef06	0.33190173
90	0xbdc1b67f	-0.094586365
91	0x3e1b9eef	0.15197347
92	0xbd99baed	-0.075063564
93	0x3eb23cc4	0.34811985
94	0x3e4c41ef	0.19947027
95	0xbdac01d4	-0.08398786
96	0x3e9ae9c9	0.3025649
97	0xbd8f235d	-0.06989167
98	0xbc874141	-0.016510608
99	0xbe79033e	-0.24317643
100	0xbc74b920	-0.014936715
101	0xbe10df2b	-0.14147632
102	0xbc6a75d9	-0.014310324
103	0x3e581b9b	0.2110428
104	0xbe52bd17	-0.20579945
105	0xbe3ce127	-0.18445264
106	0xbb37caba	-0.0028044418
107	0xbd681711	-0.056662623
108	0x3dcabca1	0.09899259
109	0xbec682a2	-0.3877154
110	0xbd0b451d	-0.03400146
111	0x3dde4feb	0.10855087
112	0x3e64c522	0.22340825
113	0x3c16bbdf	0.009200065
114	0x3cc8cea3	0.024512595
115	0x3e1fd2c9	0.15607752
116	0x3bfd90af	0.007738195
117	0x3ebb434f	0.3657479
118	0x3e977dfa	0.295883
119	0x3e1211f4	0.14264661
120	0x3e95f361	0.29287246
121	0xbd7f1d64	-0.06228389
122	0xbf0382ae	-0.51371276
123	0x3d045127	0.032303955
124	0x3e4fa68d	0.20278378
125	0x3e1a659a	0.1507782
126	0x3e42531d	0.18977018
127	0xbcb6af8c	-0.022300504
128	0x3e0c9437	0.13728414
129	0x3e15fa7c	0.14646333
130	0x3da1ef42	0.07906963
131	0x3e3ffdbf	0.1874914
132	0x3e873309	0.26406124
133	0x3ce9452e	0.02847537
134	0xbd5756b7	-0.052572932
135	0xbdcccae8	-0.09999639
136	0x3d0c6fb7	0.034286227
137	0xbe15cfc8	-0.14630044
138	0xbc4ee84b	-0.012628625
139	0x3eb3bf21	0.35106757
140	0xbe0c22ff	-0.13685225
141	0x3c4201aa	0.011841217
142	0xbdeecde5	-0.11660365
143	0xbd0a2a89	-0.03373197
144	0xbeb9a09f	-0.36255357
145	0x3e413fc0	0.18871975
146	0xbe920c2b	-0.28524908
147	0x3dfd02d3	0.12354054
148	0x3e924233	0.2856613
149	0x3d0e6c20	0.034771085
150	0x3c989781	0.01862693
151	0xbe1d498e	-0.1536009
152	0xbeb7a463	-0.35867605
153	0xbd52e5dd	-0.051488746
154	0x3d6f50f4	0.058426812
155	0x3c65f212	0.014034765
156	0xbd97810d	-0.07397661
157	0xbe483a1f	-0.19553421
158	0xbcb51742	-0.022105817
159	0xbcbf9e6d	-0.023390973
160	0x3ddfce2b	0.10927995
161	0x3e497d56	0.19676718
162	0x3de4da43	0.111744426
163	0x3e405b9a	0.18784943
164	0x3d6ddc91	0.058071677
165	0xbe8626f4	-0.26201594
166	0x3cbe9cad	0.023268068
167	0xbe6d3b87	-0.23167239
168	0x3d0b4a98	0.034006685
169	0x3c2575e5	0.010098909
170	0x3c9e61d1	0.019333752
171	0xbd7355d2	-0.059408017
172	0xbe80bfb7	-0.25146267
173	0x3e83e5a8	0.2576115
174	0xbc4fd523	-0.012685093
175	0x3e09ecc7	0.1346923
176	0x3dde878c	0.10865697
177	0xbb01c1f4	-0.0019799443
178	0xbe0f2d02	-0.13982013
179	0x3e9d63f2	0.30740315
180	0x3dadc507	0.084848456
181	0x3ee15766	0.44011992
182	0x3e869697	0.26286766
183	0x3e807f19	0.25096968
184	0xbe949f9c	-0.29028022
185	0xbe172765	-0.14761122
186	0xbe289be5	-0.16465719
187	0xbebe3cfa	-0.37155896
188	0xbe84f7b9	-0.25970247
189	0xbe4c7fab	-0.19970576
190	0x3c32c72c	0.010911744
191	0x3e12bb01	0.14329149
192	0x3cb732bb	0.022363057
193	0x3e561075	0.20904715
194	0xbdbe402a	-0.09289582
195	0xbf114a5a	-0.56754076
196	0xbe1cde1c	-0.15319103
197	0xbdb07e02	-0.08617784
198	0x3deead96	0.11654203
199	0x3e3e837c	0.18604845
200	0xbe6e8660	-0.23293447
201	0xbe56215b	-0.20911162
202	0x3ea9ee27	0.33189508
203	0x3e6b83ac	0.22999448
204	0xbf1a62e4	-0.60307145
205	0xbe3b0229	-0.18262543
206	0x3e1fdf53	0.15612535
207	0xbd8813c3	-0.06644394
208	0xbeea336e	-0.45742363
209	0xbcfb62c9	-0.030686753
210	0x3d8168fa	0.06318851
211	0x3d951ba7	0.07280665
212	0xbb8a40a3	-0.004219131
213	0x3e40e987	0.18839084
214	0x3e29b68c	0.16573542
215	0x3dcab81a	0.09898396
216	0xbeae9ede	-0.3410558
217	0xbe855500	-0.26041412
218	0x3ba4125a	0.0050070705
219	0x3c640265	0.0139165865
220	0x3dab796b	0.08372768
221	0x3cdaa40f	0.026689557
222	0x3c238fcd	0.009983015
223	0xbbc9ceac	-0.0061586704
224	0xbd82682e	-0.06367527
225	0xbe8d9380	-0.27651596
226	0x3dc8e9ec	0.09810242
227	0xbe4fac43	-0.20280556
228	0x3e1f8db9	0.15581407
229	0x3cda9df7	0.026686652
230	0xbdfc745d	-0.12326882
231	0xbf095c28	-0.53656244
232	0x3e32cc9b	0.17460863
233	0x3e8fed8e	0.28110927
234	0xbd769e3d	-0.0602095
235	0x3e3e6406	0.18592843
236	0x3a96652c	0.0011474243
237	0x3e61a39a	0.22035065
238	0x3abcfc95	0.0014418537
239	0xbe49d10d	-0.19708653
240	0x3e7ffaad	0.24997969
241	0x3e546800	0.20742798
242	0xbd5e109c	-0.05421506
243	0xbe7803d0	-0.24220204
244	0x3e2d24f4	0.16908628
245	0x3e56d93d	0.20981307
246	0x3dad88f4	0.08473387
247	0xbe7b45b6	-0.24538311
248	0x3d5d7f28	0.054076344
249	0xbbd39664	-0.006457137
250	0xbd89a9bb	-0.06721827
251	0x3de1937c	0.110144585
252	0x3ddb9562	0.10721852
253	0x3daf8770	0.085707545
254	0xbc8c411a	-0.017120887
255	0xbdaf8cee	-0.08571802

weight f4 [32]
0	0x3f852c8c	1.040422
1	0x3f58ec01	0.84735113
2	0x3f473047	0.7780804
3	0x3f5cb080	0.8620682
4	0x3eda3f7f	0.4262657
5	0x3f42f510	0.76155186
6	0x3f7f2195	0.9966062
7	0x3f213ea2	0.62986195
8	0x3f433774	0.7625649
9	0x3f99e8b8	1.2024145
10	0x3f5ad2ec	0.8547809
11	0x3f55a032	0.83447564
12	0x3f70008f	0.9375085
13	0x3f5e982e	0.8695096
14	0x3f4df7a6	0.80456007
15	0x3f79a839	0.9752231
16	0x3f5c7fec	0.86132693
17	0x3f3e966f	0.74448293
18	0x3f229941	0.63515097
19	0x3f333566	0.70003355
20	0x3f86c352	1.0528357
21	0x3f3f6ec3	0.74778384
22	0x3f89ee3b	1.0775827
23	0x3f17b377	0.59258217
24	0x3f9089b9	1.129203
25	0x3f384eba	0.7199513
26	0x3f9439c5	1.158013
27	0x3f0e4cad	0.5558575
28	0x3f49ae03	0.78781146
29	0x3f571e9a	0.8403107
30	0x3f3a78e4	0.72840714
31	0x3f1e478d	0.6182793

bias f4 [32]
0	0xbbc3ca17	-0.0059750187
1	0xbccadeec	-0.0247645
2	0xbd2a82a8	-0.04162851
3	0xbdb3f5e1	-0.08787132
4	0x3e2a9984	0.16660124
5	0xbc299695	-0.010350843
6	0xbd4cf2b2	-0.05003614
7	0x3e2542e2	0.16138795
8	0x3d8db2db	0.069188796
9	0x3dc99e5a	0.09844656
10	0xb9c6063d	-0.0003777015
11	0x3dd2c099	0.10290641
12	0x3cb5060d	0.022097612
13	0xbcf50a31	-0.029912086
14	0x3e881676	0.26579636
15	0x3cd55628	0.026042059
16	0xbcc9b753	-0.024623549
17	0x3db945a9	0.0904649
18	0x3d340287	0.043947723
19	0x3e1e6352	0.15467575
20	0x3d816b80	0.06319332
21	0xbf2be430	-0.6714506
22	0xbdc56e93	-0.09640231
23	0x3ca11df1	0.019667597
24	0xbc35fea6	-0.011108076
25	0x3e4c6b1b	0.19962732
26	0x3cddc02a	0.02706917
27	0x3cd2a78a	0.025714654
28	0x3b7b9d09	0.003839316
29	0xbe54e715	-0.20791276
30	0x3decb36f	0.11557662
31	0x3c634c41	0.013873161

running_mean f4 [32]
0	0x3f2420cd	0.6411255
1	0x3e959c5e	0.2922086
2	0x3d1abb0d	0.03777604
3	0x3f0dd608	0.5540471
4	0x3e719b97	0.23594509
5	0x3f32a4c0	0.6978264
6	0x3ef9c2c0	0.48781395
7	0x3edb1e1a	0.42796403
8	0x3f1384c0	0.57624435
9	0x3e336637	0.1751946
10	0x3f224b98	0.63396597
11	0x3e842df5	0.25816312
12	0x3ec874aa	0.39151508
13	0x3ee03f2c	0.43798196
14	0x3e6bdda4	0.23033768
15	0x3f120fdc	0.5705545
16	0x3f1ace20	0.6047077
17	0x3e76debe	0.24108407
18	0x3f065b2e	0.5248288
19	0x3e1672b1	0.14692189
20	0x3e5b59ce	0.21420977
21	0x3e1c3a1d	0.15256543
22	0x3dc93026	0.09823637
23	0x3ee3d7cb	0.44500574
24	0x3f07f553	0.5310871
25	0x3e9bd5cb	0.3043655
26	0x3e5661cb	0.20935743
27	0x3e2cb970	0.16867614
28	0x3f17fdda	0.5937172
29	0x3d171951	0.036889378
30	0x3edda582	0.43290335
31	0x3ebe54ce	0.37174076

running_var f4 [32]
0	0x3e1c4980	0.15262413
1	0x3dc79a3f	0.09746217
2	0x3d20a511	0.03921992
3	0x3e56dea5	0.2098337
4	0x3dd32e64	0.10311583
5	0x3eb33006	0.34997576
6	0x3de7dc62	0.113213316
7	0x3e94a140	0.29029274
8	0x3e83b42f	0.25723407
9	0x3ea6c782	0.32574087
10	0x3e9461da	0.28980905
11	0x3d8e996f	0.06962859
12	0x3e12e317	0.1434444
13	0x3e0be25e	0.13660571
14	0x3e526795	0.20547326
15	0x3e3b4d04	0.18291098
16	0x3e081b11	0.13291575
17	0x3d8b4efc	0.068021744
18	0x3e097bd6	0.13426146
19	0x3dc94ef7	0.098295145
20	0x3e524a4a	0.20536152
21	0x3da663c6	0.08124499
22	0x3d7ecea6	0.062208794
23	0x3e3fd68a	0.18734184
24	0x3e7c024e	0.24610254
25	0x3db5c81e	0.0887606
26	0x3e8c1f5b	0.27367672
27	0x3e03d634	0.12874681
28	0x3e3a0fba	0.18170062
29	0x3c500caa	0.012698332
30	0x3dcc1fae	0.0996698
31	0x3dbbbcdf	0.09166884

weight f4 [32, 1, 3, 3]
0	0xbf0d300a	-0.55151427
1	0x3ef207bf	0.47271535
2	0x3dc76bb2	0.09737338
3	0x3f221daf	0.63326544
4	0xbedcef1c	-0.43151176
5	0xbe518705	-0.20461662
6	0xbdd3a00f	-0.10333263
7	0x3dba8771	0.09107865
8	0xbd88cdbe	-0.06679867
9	0x3ac59a1f	0.0015075839
10	0xbe094adc	-0.13407463
11	0xbe0addc6	-0.13561162
12	0x3e86fc40	0.26364326
13	0xbed070dc	-0.40711105
14	0xbf1e7f96	-0.6191343
15	0x3e796b91	0.2435744
16	0x3f1ea7b9	0.61974674
17	0x3e1d23a4	0.15345627
18	0x3cc166ed	0.02360865
19	0xbdc8897a	-0.097918466
20	0x3e1762a9	0.1478373
21	0xbc8ffcae	-0.017576542
22	0xbf7f5cd7	-0.9975104
23	0x3f0a1374	0.53935933
24	0x3c57468f	0.013139381
25	0xbb9839a2	-0.0046455422
26	0x3e47bd52	0.19505814
27	0xbdef0d06	-0.11672406
28	0xbf618f93	-0.881097
29	0xbe4f6eb8	-0.2025708
30	0xbd223542	-0.03960157
31	0x3e9b1e26	0.3029644
32	0x3f317849	0.69324166
33	0xbd36ca23	-0.044626366
34	0x3d866b74	0.06563464
35	0x3e3ececf	0.18633579
36	0xbe0861a7	-0.13318501
37	0xbe47ff6c	-0.1953103
38	0xbe556ef7	-0.20843111
39	0xbcaade38	-0.020857915
40	0x3f3a7d30	0.7284727
41	0x3f731637	0.9495577
42	0xbe3cd537	-0.1844071
43	0xbe7ec1d2	-0.24878624
44	0xbd0069a6	-0.031350754
45	0x3e336637	0.1751946
46	0x3e4cee15	0.20012696
47	0xbe0d14ae	-0.1377742
48	0x3eba23e4	0.36355507
49	0x3f33aa5e	0.70181835
50	0xbf613b04	-0.87980676
51	0xbdaf10fd	-0.08548162
52	0x3e79fa06	0.24411783
53	0xbee2269b	-0.4417008
54	0x3dbf51df	0.093417875
55	0xbe37c39f	-0.17945717
56	0x3d4f0895	0.050545294
57	0x3ea94492	0.33060127
58	0xbf2cbf61	-0.6747952
59	0xbe428eee	-0.18999836
60	0x3e030640	0.12795353
61	0xbe994957	-0.29938766
62	0x3cce03e4	0.02514834
63	0xbe227f18	-0.15868795
64	0xbf01e4be	-0.5073966
65	0xbe5080d7	-0.20361648
66	0x3ec3a6b0	0.3821311
67	0x3f70d21e	0.94070613
68	0x3e335bb3	0.17515449
69	0xbdcae8f0	-0.099077106
70	0x3ecdaaa5	0.40169254
71	0xbdf8a998	-0.121417224
72	0xbda2b763	-0.079451345
73	0x3ed03aef	0.40669963
74	0xba8beb04	-0.0010674899
75	0x3efa1cab	0.48849997
76	0xbf83716d	-1.026899
77	0xbe84e1a9	-0.25953415
78	0x3e32f876	0.17477593
79	0xbe85e303	-0.2614976
80	0xbe5c7c51	-0.21531798
81	0xbdaacefe	-0.08340262
82	0x3e234324	0.15943581
83	0xbdf1d184	-0.1180754
84	0x3d5d6dd8	0.054059833
85	0x3f47593f	0.77870554
86	0x3de9fedc	0.11425564
87	0xbcff35f7	-0.031153662
88	0x3f2de22d	0.6792324
89	0xbcb9fb88	-0.022702947
90	0xbe843ca3	-0.25827512
91	0xbe5ee7df	-0.2176814
92	0xbe0f3efc	-0.1398887
93	0x3e34ed5b	0.17668669
94	0x3f9b6fc8	1.2143488
95	0x3e8186c6	0.25298136
96	0xbe90dc4a	-0.28293067
97	0x3e61b319	0.22040977
98	0xbe9094ea	-0.28238612
99	0x3eb68310	0.35646868
100	0x3e2f0a3c	0.17093748
101	0x3e98ddee	0.2985682
102	0xbee0e0f7	-0.43921635
103	0xbf5cdbfe	-0.8627318
104	0xbe95527e	-0.291645
105	0x3d657f38	0.05602953
106	0xbdd6e445	-0.10492758
107	0x3e3640b5	0.17798121
108	0x3d6bca6b	0.057566088
109	0x3eb8f862	0.36127
110	0xbe0c5c97	-0.13707195
111	0x3f014f21	0.50511366
112	0x3e889cb3	0.26682052
113	0xbf0ad29a	-0.542276
114	0x3c08a371	0.008339749
115	0x3c7a69e5	0.015284036
116	0xbc6565aa	-0.014001289
117	0x3db51716	0.08842294
118	0x3d624885	0.05524494
119	0xbcb32caa	-0.021871883
120	0xbecfb11c	-0.4056481
121	0x3f5f3a2e	0.8719815
122	0x3d9f402f	0.07775914
123	0xbd79f120	-0.06102097
124	0xbe668f54	-0.22515613
125	0x3ecd1369	0.4005387
126	0xbd3de93d	-0.04636501
127	0x3d692c4e	0.056927018
128	0x3d197738	0.03746721
129	0x3eb1395f	0.34614083
130	0x3f4f4383	0.8096239
131	0x3cc420b7	0.02394138
132	0x3da14287	0.07874017
133	0x3db322ce	0.08746873
134	0xbdad8d65	-0.084742345
135	0xbe9b423e	-0.30323976
136	0xbe53db66	-0.20689163
137	0xbe3d7e65	-0.18505247
138	0x3ede7389	0.4344752
139	0x3f6010b4	0.87525487
140	0x3d0d215f	0.034455653
141	0xbd9e769e	-0.07737468
142	0x3eb1fc78	0.3476293
143	0xbe9ab00a	-0.30212432
144	0xbd0dae81	-0.034590248
145	0x3e42cea9	0.19024147
146	0x3dd262ae	0.10272728
147	0xbd0fd7aa	-0.035117783
148	0x3f1afbd8	0.60540533
149	0xbe9efcc9	-0.31052235
150	0x3dfc09be	0.12306546
151	0xbf5dd54b	-0.86653584
152	0x3df92a31	0.121662505
153	0x3db4b370	0.088232875
154	0x3d4f4214	0.050600126
155	0x37e6c232	2.7508566e-05
156	0xbe1ff4ce	-0.1562073
157	0xbe377f31	-0.17919613
158	0xbf4dc06f	-0.80371755
159	0x3e888719	0.2666557
160	0xbdd2c79c	-0.10291979
161	0xbd92ebe3	-0.07173898
162	0xbe2bc374	-0.16773778
163	0x3efcd5c8	0.49381852
164	0xbd5652db	-0.05232511
165	0x3eccf4ae	0.40030426
166	0xbf9a74bc	-1.2066875
167	0x3dcc98e2	0.099900976
168	0xbd683da8	-0.056699425
169	0x3dfc242c	0.12311587
170	0xbd858bbb	-0.06520792
171	0xbd211901	-0.039330486
172	0xbe4929eb	-0.19644897
173	0x3de5b8e1	0.112169035
174	0xbdf23ce2	-0.11828019
175	0x3f6086cf	0.877057
176	0x3f088ad8	0.5333686
177	0xbd4dd8d5	-0.050255615
178	0x3cbe983d	0.023265952
179	0xbe3b0480	-0.18263435
180	0x3d01bb07	0.031672504
181	0x3f022ec7	0.50852627
182	0xbe4247d3	-0.18972711
183	0xbe31aa59	-0.17350139
184	0x3f05edfb	0.52316254
185	0x3ef12bde	0.4710378
186	0x3afdf080	0.0019374043
187	0x3cb43dc4	0.022002108
188	0xbde0f18b	-0.10983571
189	0xbc3f6712	-0.011682289
190	0x3da53a48	0.08067757
191	0x3e257550	0.16158032
192	0x3e590219	0.21192206
193	0x3ed645a4	0.41850007
194	0x3e3d15de	0.18465373
195	0xbd78b948	-0.060723573
196	0x3dfbf58d	0.123026945
197	0x3bf15655	0.007365028
198	0xbdcfa9ba	-0.10139795
199	0x3ec6caf4	0.38826716
200	0xbd5051fa	-0.05085943
201	0xbd4641a4	-0.048402444
202	0x3f35aff7	0.70971626
203	0x3db60925	0.08888463
204	0x3d2f4c52	0.042797394
205	0xbdf24ccc	-0.11831054
206	0x3cc98cd6	0.024603289
207	0x3e542d53	0.20720415
208	0x3f3da167	0.74074405
209	0x3f150fcc	0.5822723
210	0xbe2c0bda	-0.16801396
211	0xbf22d6fc	-0.6360929
212	0xbe424634	-0.18972093
213	0xbe281e5f	-0.16417836
214	0xbea4397d	-0.3207511
215	0xbe3edaf0	-0.18638206
216	0x3ec59b0c	0.38594854
217	0xbe96a3ba	-0.29421788
218	0xbf031bee	-0.5121449
219	0x3f0e62a4	0.55619264
220	0x3e050f71	0.12994172
221	0xbf1841dd	-0.594755
222	0xbe1c0ee4	-0.15240055
223	0x3dfaf530	0.12253797
224	0x3e3af7bc	0.18258566
225	0x3b59bcd5	0.0033224125
226	0xbe772ea7	-0.2413889
227	0xbdc0f8dc	-0.09422466
228	0x3ec3d1d9	0.3824604
229	0x3f1a7596	0.6033567
230	0x3d202d84	0.039105907
231	0x3dde4735	0.108534254
232	0x3eb1722c	0.3465742
233	0xbd30c075	-0.04315229
234	0xbe0281fb	-0.12744896
235	0x3d6be60d	0.05759244
236	0xbdd752e1	-0.10513855
237	0x3da0c4b5	0.07850019
238	0x3f5cf3ca	0.8630949
239	0x3e66bfdc	0.22534126
240	0xbd987488	-0.074441016
241	0x3ea340e7	0.31885454
242	0x3d80f91d	0.062975146
243	0xbea51b2d	-0.32247296
244	0x3e577972	0.21042421
245	0x3d0c50cc	0.03425674
246	0x3d8627bb	0.06550547
247	0x3f04a33c	0.51811576
248	0x3f5881cb	0.8457305
249	0xbe3757d0	-0.17904592
250	0x3dd6ad97	0.104823284
251	0xbe2308db	-0.15921347
252	0xbdeffef5	-0.11718551
253	0x3f767cae	0.96283996
254	0x3db31651	0.08744491
255	0xbd991093	-0.074738644

weight f4 [32, 32, 1, 1]
0	0xbc630886	-0.013857013
1	0xbe06ea99	-0.1317543
2	0x3eef6273	0.46754798
3	0x3dafe655	0.08588854
4	0xbe297e53	-0.16552095
5	0xbeaab085	-0.333378
6	0x3de3e6f1	0.11128033
7	0x3e1572b0	0.14594531
8	0x3d819a1a	0.06328221
9	0x3d980f5e	0.07424806
10	0x3c3982fc	0.011322733
11	0x3e8ff6e1	0.2811804
12	0x3cad9a94	0.021191873
13	0x3c71d1e1	0.014759512
14	0x3eb15ddc	0.34641922
15	0xbefbcdd0	-0.4918046
16	0xbe0043ea	-0.12525907
17	0x3e439cb9	0.19102754
18	0xbdccbd32	-0.09997024
19	0xbcf50d03	-0.029913431
20	0x3dfe69d1	0.12422527
21	0xbe5fcd59	-0.21855678
22	0xbc3b6330	-0.011437222
23	0x3e1fd93d	0.15610214
24	0x3cbc6124	0.022995539
25	0xbebd6c39	-0.3699663
26	0xbe27b9ae	-0.16379425
27	0x3eb6dad8	0.3571384
28	0xbcbe9890	-0.023266107
29	0x3dce79d4	0.100818306
30	0x3baafeb6	0.005218352
31	0x3ea27f84	0.31737912
32	0x3de2b79b	0.11070176
33	0xbe322fb5	-0.17401011
34	0x3dead3ce	0.1146618
35	0xbed740e9	-0.4204171
36	0xbf29d4b9	-0.66340214
37	0x3d739f11	0.05947787
38	0xbdd46349	-0.103705
39	0xbe66532f	-0.2249267
40	0x3d8ca756	0.06867854
41	0x3dc6b64a	0.09702738
42	0xbe8b7f1e	-0.2724542
43	0x3e28c499	0.16481246
44	0xbe13e5bb	-0.14443104
45	0x3d1706c6	0.036871694
46	0xbe0d7863	-0.13815455
47	0x3d370462	0.044681914
48	0xbd881b22	-0.066458
49	0xbe31af1d	-0.17351957
50	0xbc7101bf	-0.014709889
51	0xbe852ee2	-0.2601233
52	0x3eac3983	0.33637628
53	0xbe24f280	-0.16108131
54	0x3df92a7f	0.121663086
55	0xbe964057	-0.29345962
56	0xbe969e1a	-0.29417497
57	0x3e5cdd6c	0.2156884
58	0x3f01664a	0.50546706
59	0xbc8314e5	-0.016001174
60	0x3f23a8d2	0.63929474
61	0x3d85b601	0.06528855
62	0x3c3af01f	0.011409788
63	0x3df4defc	0.119565934
64	0xbc7f903f	-0.015598356
65	0xbd251057	-0.040298786
66	0xbd8818d0	-0.066453576
67	0x3d50fb52	0.051020928
68	0x3f2fc9a9	0.68667084
69	0xbe322e20	-0.17400408
70	0xbe68fe65	-0.22753294
71	0x3ea52843	0.3225728
72	0x3cc67e79	0.024230229
73	0x3d9eb869	0.07750017
74	0x3e02f787	0.12789737
75	0xbd05faa2	-0.032709725
76	0xbc244ad8	-0.01002761
77	0x3cc4da7e	0.024029966
78	0x3d36cd5b	0.044629436
79	0xbd1e7e96	-0.03869494
80	0x3dd65ac8	0.10466534
81	0xbe0c0b93	-0.1367629
82	0x3c31aff4	0.010845173
83	0x3d333d58	0.043759674
84	0x3d37d0ec	0.044876978
85	0x3c481d7f	0.012214064
86	0xbccfcc0e	-0.025365856
87	0x3e0ccd58	0.13750207
88	0x3de2d43f	0.11075639
89	0x3eabd9fa	0.3356474
90	0x3e18019d	0.14844365
91	0x3eb2588c	0.3483318
92	0x3cc1d0dc	0.023659162
93	0xbf3326fd	-0.69981366
94	0xbdef1609	-0.11674125
95	0xbe5772d3	-0.21039896
96	0x3e618fff	0.22027586
97	0xbd61bd93	-0.055112433
98	0xbe628fdf	-0.22125195
99	0xbc82a622	-0.015948359
100	0xbd88c84f	-0.06678831
101	0x3d6baa5b	0.05753551
102	0x3dfcaf53	0.12338128
103	0xbd0ab2f6	-0.033862077
104	0xbec203e2	-0.37893587
105	0xbe85e8c8	-0.2615416
106	0x3c9a57f3	0.018840766
107	0x3dbec359	0.09314603
108	0xbe473f51	-0.19457747
109	0xbd594782	-0.05304671
110	0xbf0e3a3d	-0.55557615
111	0xbd17ced7	-0.037062492
112	0xbf30d479	-0.6907421
113	0xbe322f9b	-0.17400973
114	0x3f2bf139	0.6716495
115	0xbc001456	-0.007817348
116	0xbcb1a3dc	-0.02168458
117	0x3e2317c5	0.15927036
118	0xbdb6062f	-0.08887898
119	0x3d57273c	0.05252765
120	0xbdb7c39d	-0.08972857
121	0xbe49a515	-0.1969188
122	0xbd087c0f	-0.033321436
123	0xbc7282ef	-0.014801725
124	0xbd0a276a	-0.033728994
125	0xbd1aebda	-0.03782258
126	0x3e421745	0.18954189
127	0x3ec48cb8	0.3838861
128	0x3e1765f7	0.1478499
129	0xbe030548	-0.12794983
130	0x3ea4b8a0	0.32172108
131	0x3e11cea6	0.14238986
132	0xbe4b9246	-0.19880018
133	0x3e0653f8	0.13117969
134	0x3f29529f	0.66141695
135	0x3e52965b	0.20565169
136	0x3f3ac96f	0.72963613
137	0xbdaede92	-0.08538546
138	0xbd685718	-0.056723684
139	0xbca2af7f	-0.019859074
140	0x3f2c6359	0.6733909
141	0x3ec74238	0.38917708
142	0xbe5a2b99	-0.21305694
143	0x3df31029	0.11868317
144	0xbe3e2538	-0.18568885
145	0x3df2798b	0.11839589
146	0xbe7d4bcb	-0.24735944
147	0xbd70dc0f	-0.058803614
148	0x3ce85d72	0.02836487
149	0x3cb0bdeb	0.021574935
150	0x3c67dc43	0.014151636
151	0x3d88fcd8	0.06688851
152	0xbe78b857	-0.2428907
153	0x3e68e885	0.22744949
154	0xbe009e87	-0.12560473
155	0xbde63009	-0.11239631
156	0xbd3a8c42	-0.045543917
157	0xbdcc8891	-0.099869855
158	0x3e52a8a8	0.2057215
159	0xbe045efc	-0.12926859
160	0xbd2202bf	-0.0395534
161	0x3cb71df2	0.022353146
162	0xbcbe870a	-0.023257751
163	0xbbec51a9	-0.007211883
164	0x3e9a89e3	0.30183324
165	0x3eb05ad2	0.3444429
166	0xbcbbe31a	-0.022935439
167	0xbd6f6401	-0.05844498
168	0x3d1d7b43	0.03844763
169	0x3d7862c4	0.060641065
170	0x3e31fdbe	0.17381951
171	0xbdf52d2f	-0.11971509
172	0x3e03bd1b	0.12865107
173	0xbd87a07e	-0.06622408
174	0x3db1c00a	0.08679207
175	0xbd932b81	-0.07186032
176	0xbddae6ec	-0.10688576
177	0xbdeeb0a9	-0.11654789
178	0x3e03ca2d	0.12870093
179	0x3e2bcc61	0.16777183
180	0x3e11e8a5	0.14248903
181	0xbe59ef02	-0.2128258
182	0x3c82c973	0.0159652
183	0xbe53fe77	-0.2070254
184	0xbd804252	-0.062626496
185	0xbdd61055	-0.10452334
186	0xbf772e73	-0.9655525
187	0xbed7ca92	-0.42146736
188	0x3e59393b	0.21213238
189	0x3e450a73	0.19242267
190	0xbd53da54	-0.051721886
191	0xbd9f7498	-0.0778591
192	0xbcb971f7	-0.02263735
193	0xbd0ee2e1	-0.034884337
194	0xbd2d4eb6	-0.042311393
195	0xbd4d21f6	-0.050081216
196	0x3db27b61	0.08714939
197	0xbddd84d3	-0.1081635
198	0x3dde24cc	0.10846862
199	0x3e59bc93	0.21263342
200	0xbddc482a	-0.10755952
201	0xbef170b4	-0.47156298
202	0x3e15cb17	0.14628254
203	0xbe822778	-0.25420737
204	0xbd8ed0c2	-0.06973411
205	0xbd5393e7	-0.051654723
206	0xbb5b1c50	-0.0033433624
207	0x3d1a507f	0.037674423
208	0xbcf6b2c9	-0.030114548
209	0x3d6e6eef	0.058211263
210	0x3c5d0c0b	0.013491641
211	0x3f1ba5fc	0.6080015
212	0x3dec3627	0.11533766
213	0xbd1bad34	-0.038006976
214	0xbe838780	-0.25689316
215	0xbe3a8787	-0.18215762
216	0xbe09a89a	-0.13443223
217	0x3e6ea87f	0.23306464
218	0x3e1edfa6	0.15515003
219	0x3f0ae28f	0.5425195
220	0x3e272243	0.16321664
221	0xbf0586d5	-0.5215886
222	0xbe03bf16	-0.12865862
223	0xbe6a0ec3	-0.22857194
224	0x3dab4641	0.08363009
225	0x3f0c7fa1	0.54882246
226	0x3c0c4e76	0.008563628
227	0x3ea7b6ec	0.32756746
228	0xbe52332f	-0.20527337
229	0xbe14f931	-0.14548184
230	0xbdf4378d	-0.11924658
231	0xbf03a982	-0.51430523
232	0xbd8acc9c	-0.067773074
233	0xbe0025f9	-0.12514485
234	0x3ea45677	0.32097217
235	0xbdcedefc	-0.10101125
236	0x3ce5354f	0.027979521
237	0xbdd15830	-0.102218986
238	0xbc5e2dc3	-0.013560715
239	0xbe8fdf1e	-0.28099912
240	0x3d1524ba	0.03641198
241	0xbe52d0be	-0.20587441
242	0xbcbb7da5	-0.02288706
243	0xbe80b16f	-0.2513537
244	0xbc8f4f68	-0.017493919
245	0x3dad26fd	0.08454702
246	0x3e1ac368	0.15113604
247	0xbf16b6bf	-0.588726
248	0x3ed3e52d	0.41385785
249	0x3e54eec4	0.20794207
250	0x3ddb885a	0.10719366
251	0xbde01a01	-0.1094246
252	0x3dd123bd	0.10211895
253	0xbc09c223	-0.008408102
254	0xbccafbe3	-0.024778312
255	0x3ca61099	0.020271586

weight f4 [32]
0	0x3f1df2c7	0.61698574
1	0x3f3900ce	0.7226685
2	0x3f37f8d4	0.71864057
3	0x3f2b501c	0.6691911
4	0x3f310c93	0.6915981
5	0x3f248fd6	0.64281976
6	0x3f31b8b2	0.6942245
7	0x3f24b0f4	0.6433251
8	0x3f36bb36	0.7137941
9	0x3f1123ec	0.5669544
10	0x3f3f719e	0.7478274
11	0x3f21249d	0.6294649
12	0x3f1fa44e	0.62360084
13	0x3f1d2b24	0.6139395
14	0x3f0fb9fe	0.56143177
15	0x3f1e9abf	0.61954874
16	0x3f3274ec	0.6970966
17	0x3f17df9a	0.59325564
18	0x3f1d90a5	0.61548835
19	0x3f382e69	0.71945816
20	0x3f2e5cec	0.6811054
21	0x3f24ff5c	0.6445215
22	0x3f2a8fe6	0.6662582
23	0x3f329db5	0.6977189
24	0x3f1d765d	0.61508733
25	0x3f358617	0.7090773
26	0x3f2cbb8a	0.6747366
27	0x3f1e89f7	0.6192927
28	0x3f24376a	0.64147055
29	0x3f196840	0.599247
30	0x3f298316	0.66215646
31	0x3f2ee61b	0.68319863

bias f4 [32]
0	0xbe8272c9	-0.254782
1	0x3dcc64f3	0.09980192
2	0x3e053227	0.13007413
3	0x3c3d6af4	0.011561144
4	0x3d9878a2	0.07444884
5	0x3dcf99c3	0.101367496
6	0x3d1ae194	0.037812784
7	0xbd237c24	-0.03991331
8	0x3e299c17	0.1656345
9	0xbe5cdab2	-0.215678
10	0x3e30eee3	0.17278628
11	0x3d1c14ee	0.038105898
12	0x3e434288	0.19068348
13	0x3c1748ad	0.009233636
14	0xbe021151	-0.12701918
15	0xbe1d36dd	-0.1535296
16	0xbdb07366	-0.086157605
17	0xbe370ff2	-0.17877176
18	0xbd5bd374	-0.053668454
19	0x3de5d4a6	0.112222
20	0x3e0c244e	0.13685724
21	0xbe05b6f1	-0.13058068
22	0x3d983a4e	0.07432996
23	0x3dba2b29	0.090902634
24	0x3d030ac2	0.03199268
25	0x3e87934d	0.2647957
26	0xbc5a472f	-0.013322636
27	0x3c55d352	0.013050871
28	0x3dc2295f	0.09480547
29	0xbc14da64	-0.0090852715
30	0x3df59299	0.11990852
31	0x3d25afe0	0.04045093

running_mean f4 [32]
0	0x3f3054ce	0.688794
1	0x3f29230e	0.66069114
2	0x3f32b50a	0.69807494
3	0x3eb48f14	0.3526541
4	0x3f08a04e	0.53369606
5	0x3f8013c4	1.0006032
6	0x3f3ad3c6	0.7297939
7	0x3eeba376	0.46023148
8	0x3f09e9de	0.5387248
9	0x3f39a193	0.7251217
10	0x3f346cd6	0.7047857
11	0x3f82dbb3	1.0223297
12	0x3fb09c15	1.3797632
13	0x3ee301ef	0.44337413
14	0x3f6a9a31	0.9164153
15	0x3ec6e15d	0.38843814
16	0x3f6b3f8a	0.9189383
17	0x3f00a9e4	0.5025923
18	0x3f5fbb1a	0.8739487
19	0x3effed91	0.49985936
20	0x3ec8444a	0.391146
21	0x3f04398c	0.5165031
22	0x3ed97ea6	0.42479438
23	0x3ebcbb05	0.36861435
24	0x3f09275a	0.5357567
25	0x3f960456	1.1720073
26	0x3f00b20b	0.5027167
27	0x3ed463d7	0.41482422
28	0x3fcdb68b	1.6071333
29	0x3f807621	1.003605
30	0x3f04c6a9	0.5186563
31	0x3eeaa2b9	0.45827273

running_var f4 [32]
0	0x3f6941fb	0.91116303
1	0x3fb78454	1.4337258
2	0x3fcc56a8	1.5963945
3	0x3f3f3c37	0.74701256
4	0x3f8124ee	1.0089395
5	0x3f861e33	1.0477966
6	0x3fd890e4	1.6919217
7	0x3f71e910	0.9449625
8	0x3f9a7690	1.2067432
9	0x3f9a5060	1.2055779
10	0x40036211	2.0528605
11	0x3f496f90	0.78685856
12	0x3fc92d77	1.5717
13	0x3f5c6aa7	0.8610024
14	0x3f49b8d2	0.7879764
15	0x3f289b82	0.65862286
16	0x3f59ce0b	0.8508002
17	0x3f046bbe	0.517269
18	0x3f9b1301	1.2115175
19	0x3f7b9a05	0.9828189
20	0x3f2af6dc	0.6678293
21	0x3f7ea918	0.99476767
22	0x3f51e748	0.8199353
23	0x3f4d9fcb	0.8032195
24	0x3f2d20f4	0.6762841
25	0x3fcf6849	1.62037
26	0x3f92444d	1.1427094
27	0x3f66f2cb	0.9021422
28	0x400ab9ab	2.1675823
29	0x3f616caf	0.88056463
30	0x3f8e069b	1.1095766
31	0x3f687316	0.9080061

weight f4 [32, 1, 3, 3]
0	0xba9df953	-0.0012052454
1	0xbee86f14	-0.45397246
2	0xbe8848c0	-0.26618004
3	0xbd4e5516	-0.050374113
4	0xbefd3587	-0.494549
5	0xbe950d76	-0.29111832
6	0x3e6a1142	0.22858146
7	0x3d7373d8	0.05943665
8	0x3e025f7c	0.12731737
9	0x3c46a41c	0.012124088
10	0xbd97295d	-0.07380936
11	0xbd68aea6	-0.056807183
12	0x3c3652f7	0.011128179
13	0xbec16e27	-0.37779352
14	0xbea9191a	-0.33026963
15	0xbbe07c12	-0.006850728
16	0xbeee3280	-0.46522903
17	0xbed5a72c	-0.41729105
18	0xbe65cf87	-0.22442447
19	0xbafc28fa	-0.0019238286
20	0xbe62c1b1	-0.221442
21	0x3d9a159b	0.07523652
22	0x3ee7256a	0.45145732
23	0x3df5d6eb	0.12003883
24	0x3e67a447	0.2262126
25	0x3f24fd41	0.64448935
26	0x3e8f5d94	0.28001082
27	0x3e24b239	0.16083612
28	0x3e534073	0.20630054
29	0x3da41cb8	0.0801329
30	0x3e3e9702	0.18612292
31	0x3ee56e94	0.44810927
32	0x3e967605	0.29386917
33	0x3d18638b	0.037204307
34	0x3e7ac53c	0.24489301
35	0x3e3d0485	0.18458755
36	0x3c7f2c84	0.015574578
37	0x3c8bd147	0.017067565
38	0x3c220185	0.009888058
39	0x3e56b15d	0.20966096
40	0x3eee9d65	0.46604457
41	0x3ee67075	0.45007673
42	0x3dbc7ed7	0.0920388
43	0x3e8aca2f	0.2710738
44	0x3e669b0b	0.22520082
45	0x3d74a9bf	0.059732195
46	0x3eb4f0c1	0.3533993
47	0x3e9d2b25	0.3069698
48	0x3d743f23	0.059630524
49	0x3ede0491	0.4336286
50	0x3ef83291	0.4847608
51	0x3cbfdc3f	0.023420451
52	0xbe463c97	-0.1935905
53	0xbd76c07e	-0.06024217
54	0xbe55dad3	-0.20884256
55	0xbecfad8e	-0.405621
56	0xbe31ad25	-0.17351206
57	0xbe2d428d	-0.16919918
58	0xbece700e	-0.40319866
59	0xbec32253	-0.38112125
60	0x3db4ac96	0.08821981
61	0xbd644233	-0.055727195
62	0xbd9611a4	-0.073275834
63	0x3c60506f	0.013691052
64	0x3d99a092	0.075013295
65	0x3b3d51c4	0.0028887847
66	0x3c88f11e	0.016716536
67	0x3ebe435c	0.37160766
68	0x3ec5c4b3	0.38626632
69	0x3c4245cd	0.011857462
70	0x3ead7a03	0.3388215
71	0x3ecdfd70	0.4023242
72	0x3db9c924	0.09071568
73	0x3e57d99c	0.21079105
74	0x3e01992f	0.12656091
75	0x3e800f80	0.25011826
76	0x3eff2a7e	0.49837106
77	0x3ea701f6	0.32618684
78	0x3d98d333	0.07462158
79	0x3e660bf2	0.22465494
80	0x3e24a9a5	0.16080339
81	0x3c5275a9	0.012845435
82	0x3e40c67c	0.18825716
83	0x3d9cb9ce	0.07652627
84	0x3e1625c5	0.14662845
85	0x3ed3dfea	0.4138177
86	0x3e4ee5af	0.20204805
87	0x3e20b253	0.15693025
88	0x3ead0cfb	0.33798966
89	0x3e83fed2	0.2578035
90	0x3d7d08cc	0.061775967
91	0x3cae7830	0.021297544
92	0x3d894fbb	0.067046605
93	0xbd106759	-0.03525481
94	0xbed8e28c	-0.42360342
95	0xbeb8dc6e	-0.36105675
96	0xbda2c015	-0.07946793
97	0xbf109f25	-0.56492835
98	0xbef1876f	-0.4717364
99	0x3e395119	0.18097343
100	0xbd4be9b8	-0.04978344
101	0xbe7c6523	-0.24647956
102	0x3f06974f	0.5257463
103	0x3ddc3192	0.10751642
104	0xbf0351c7	-0.5129666
105	0x3ea5d050	0.32385492
106	0x3e0bf7fa	0.13668814
107	0xbe837355	-0.2567393
108	0x3de5a61a	0.11213322
109	0x3d16e2bd	0.03683733
110	0xbe296fcd	-0.16546555
111	0x3e0074b5	0.1254452
112	0xbeecc80d	-0.46246377
113	0xbf1972e4	-0.59940934
114	0xbc812d82	-0.01576877
115	0xbe9ac862	-0.30231005
116	0xbe365ed0	-0.17809606
117	0x3d255e3b	0.04037307
118	0x3e1e3572	0.15450075
119	0xbe001214	-0.12506896
120	0x3e9b9c9c	0.3039292
121	0x3ec65248	0.3873465
122	0x3d922385	0.07135681
123	0x3e9f79e2	0.31147677
124	0x3eb60b1d	0.35555354
125	0x3dfa6b34	0.122274786
126	0xbd16cdb3	-0.036817264
127	0x3d7c2ae1	0.06156433
128	0x3d2ea958	0.042641968
129	0x3e459a74	0.192972
130	0x3f031cea	0.51215994
131	0x3eac2c87	0.33627722
132	0x3dc3e88d	0.0956584
133	0x3e0e6916	0.13907275
134	0x3e0554f2	0.13020685
135	0xbdf0c616	-0.11756532
136	0xbe50dada	-0.20395985
137	0xbd611929	-0.054955635
138	0xbeafee50	-0.34361506
139	0xbedb2359	-0.42800406
140	0xbe1341b9	-0.1438054
141	0xbe74b883	-0.2389851
142	0xbe429f93	-0.19006185
143	0x3d05faf7	0.03271004
144	0xbed8c8ac	-0.423406
145	0xbef4ca4e	-0.47810596
146	0x3ca291e0	0.01984495
147	0xbec3d97f	-0.38251874
148	0xbda646d6	-0.0811898
149	0x3ebeb288	0.37245584
150	0x3df8ffd7	0.121581726
151	0x3f06d7d9	0.5267311
152	0x3e76e1a6	0.24109516
153	0x3ddaeef4	0.10690108
154	0x3d96ee44	0.07369664
155	0x3c054bea	0.008135775
156	0x3e8735e3	0.264083
157	0x3ec2d804	0.38055432
158	0x3e664b9c	0.2248978
159	0x3e7cc81d	0.24685712
160	0x3eb194fd	0.34683982
161	0x3e1f542c	0.15559453
162	0x3dfd4a10	0.12367642
163	0x3e087d94	0.13329154
164	0xbdeb3838	-0.11485332
165	0x3e80cec2	0.25157744
166	0x3eeb96c9	0.46013477
167	0x3df7a4bc	0.120919675
168	0x3dd42f35	0.103605665
169	0x3e98b391	0.29824498
170	0x3e8add33	0.27121887
171	0x3d7df795	0.06200369
172	0x3d9b105f	0.07571482
173	0x3e2fe454	0.17176944
174	0xbe3d3944	-0.18478876
175	0xbecbde1f	-0.39817902
176	0xbdd8fc71	-0.105950244
177	0xbe5f1cbc	-0.21788305
178	0xbf1b0491	-0.6055384
179	0xbeb0ed07	-0.34555838
180	0x3d544777	0.051825967
181	0x3e7d6b58	0.2474798
182	0x3cdf0a62	0.02722663
183	0x3e6e5d1d	0.23277707
184	0x3f08edb2	0.53487694
185	0x3e5e4a3b	0.21708004
186	0x3da5c930	0.08095014
187	0x3e5469f6	0.20743546
188	0xbd8137b6	-0.06309454
189	0xbda2aeae	-0.07943474
190	0x3cbf3769	0.023341851
191	0x3df8a2b9	0.12140412
192	0xbe3688cb	-0.1782562
193	0xbeb453a3	-0.3522006
194	0xbdfa1241	-0.12210513
195	0xbd66b5ca	-0.05632571
196	0xbef7e192	-0.48414284
197	0xbedcf096	-0.43152303
198	0x3e2b06fd	0.16701885
199	0x3e91443e	0.28372377
200	0x3c3688d6	0.011141023
201	0x3ebbad2e	0.36655563
202	0x3efef30d	0.49794808
203	0x3e1b57cf	0.15170215
204	0x3de1bd03	0.11022379
205	0x3e13a4c9	0.1441833
206	0x3bdce1f1	0.0067408015
207	0xbb832416	-0.0040021045
208	0xbd73382e	-0.05937975
209	0xbc446a74	-0.011988271
210	0xbe2bc709	-0.16775145
211	0xbec5dc0b	-0.38644442
212	0xbe7b1951	-0.24521376
213	0xbe1c3325	-0.15253885
214	0xbed4aa39	-0.4153612
215	0xbeb14455	-0.34622446
216	0x3d467210	0.048448622
217	0xbc80dfc1	-0.015731694
218	0xbd097b47	-0.033564832
219	0x3d35d7c1	0.044395212
220	0xbecaa89d	-0.39581767
221	0xbeac84c9	-0.33695057
222	0xbd91f59c	-0.071269244
223	0xbed62f67	-0.4183304
224	0xbea50065	-0.32226864
225	0x3a515d76	0.0007986644
226	0x3ebd7d41	0.37009624
227	0x3e821476	0.25406235
228	0xbea60921	-0.3242884
229	0x3e8e64ae	0.27811188
230	0x3f37d387	0.7180714
231	0xbe2fdfba	-0.17175189
232	0xbe4f99eb	-0.20273559
233	0x3e43a7cb	0.19106977
234	0xbd05273f	-0.03250813
235	0x3de29858	0.110642135
236	0x3da47bee	0.0803145
237	0x3e19ce2b	0.15020053
238	0x3ecc47b3	0.39898452
239	0x3eb830f1	0.3597484
240	0x3d9d631c	0.07684919
241	0x3e9efcdd	0.31052294
242	0x3ea4af9c	0.3216523
243	0xbd385341	-0.045001272
244	0xbe21f556	-0.15816244
245	0xbd6df6b7	-0.058096614
246	0xbe17a540	-0.14809132
247	0xbeda0096	-0.42578572
248	0xbe8a3ed4	-0.2700106
249	0xbe3c5de3	-0.1839519
250	0xbea1ac59	-0.31576803
251	0xbe3f8705	-0.1870385
252	0xbdeb4d3f	-0.11489343
253	0xbceb5427	-0.02872665
254	0x3e0bf08c	0.1366598
255	0xbe8489c1	-0.25886348
