Session 9 - Advanced Convolutions, Data Augmentation and Visualization/weights/20240329_201359_32_64_128_224.pt (torch, 849792 bytes, 74 tensors)

weight f4 [3, 1, 3, 3]
-1.3976423 -0.39736542 0.14830147 2.6042597 1.0146127 -0.64965963 0.6012495 0.7811566
-1.0475363 -0.45408872 -0.770217 0.08929716 0.22700925 3.5065753 -1.2918142 -1.3975381
3.9650316 -2.4828613 -0.2895547 0.5237728 -0.9328233 1.7135644 2.6828008 -1.3229716
-0.36016 -0.6019883 0.18924098
00000000: f1e5 b2bf 7b73 cbbe 57dc 173e 31ac 2640
00000010: d4de 813f 1850 26bf 7deb 193f e1f9 473f
00000020: ab15 86bf 517e e8be f12c 45bf 6ee1 b63d
00000030: 1d75 683e bb6b 6040 2b5a a5bf 87e2 b2bf
00000040: 14c3 7d40 33e7 1ec0 8340 94be f915 063f
00000050: 82cd 6ebf 1456 db3f 02b3 2b40 2257 a9bf
00000060: e466 b8be e81b 1abf 63c8 413e

weight f4 [32, 3, 1, 1]
0.38413087 0.2949422 -0.7230805 0.1381283 0.3947881 -1.0427246 0.20620051 0.50040954
-0.38606915 0.4970697 -0.8683628 0.09174937 0.54450554 -0.24522713 0.39165416 0.5564025
-0.16338894 0.24362598 -0.5015997 0.844491 -0.14476082 -0.34520304 0.3754671 0.69030446
-0.41705018 -0.14598815 0.88601106 -0.94685245 1.8129171 -0.6265975 0.5776568 -0.718268
-0.30392894 -0.12666576 -0.12244657 0.613956 0.27941954 -0.91709906 0.4683357 0.2797343
0.035258032 -0.97545373 -0.7710076 0.17615427 0.8222806 -0.709288 0.18418328 0.723976
0.6334854 -1.4505632 0.442937 -0.4409363 -0.1818269 0.8136363 -0.33871326 -0.46934375
0.52552223 0.84416085 0.010725576 -0.42419496 0.37421086 -0.32915115 0.524324 -0.6144333
0.3111233 -0.32514647 -0.18411447 0.34746155 0.09566906 -0.36601785 -0.14832698 -0.23303665
0.67269164 -1.249618 0.23838094 0.20687538 0.22114898 0.22837643 -0.70562327 -0.31468377
0.65345687 -0.7401632 -0.09809851 0.3663475 0.24859945 0.5689187 -0.42211893 -0.40218154
-0.087351054 -0.2608387 0.2759903 -0.61735946 -0.34052145 0.52069515 0.16655113 -0.966384
00000000: cdac c43e aa02 973e ce1b 39bf 8171 0d3e
00000010: aa21 ca3e 0078 85bf 3a26 533e d71a 003f
00000020: dbaa c5be eb7f fe3e 064d 5ebf 18e7 bb3d
00000030: b764 0b3f d21c 7bbe e586 c83e 6570 0e3f
00000040: 6e4f 27be 1779 793e d768 00bf 9030 583f
00000050: 2e3c 14be 74be b0be 393d c03e cbb7 303f
00000060: 9a87 d5be eb7d 15be 9fd1 623f ec64 72bf
00000070: ab0d e83f b268 20bf 51e1 133f 69e0 37bf
00000080: 939c 9bbe abb4 01be 44c5 fabd 382c 1d3f
00000090: 1410 8f3e 01c7 6abf b2c9 ef3e 5639 8f3e
000000a0: ba6a 103d 56b7 79bf c160 45bf c961 343e
000000b0: fb80 523f e693 35bf 8b9a 3c3e 7e56 393f
000000c0: 192c 223f 0eac b9bf a3c8 e23e 67c2 e1be
000000d0: d530 3abe 784a 503f d36b adbe d34d f0be
000000e0: a088 063f ed1a 583f 54ba 2f3c 1530 d9be
000000f0: 9198 bf3e 8086 a8be 193a 063f 804b 1dbf
00000100: 8e4b 9f3e 9979 a6be 8188 3cbe 7be6 b13e
00000110: 24ee c33d b166 bbbe 07e3 17be 29a1 6ebe
00000120: 8535 2c3f 7cf3 9fbf 221a 743e 24d7 533e
00000130: e174 623e 83db 693e baa3 34bf 3b1e a1be
00000140: f348 273f 567b 3dbf dfe7 c8bd e691 bb3e
00000150: db90 7e3e a8a4 113f f91f d8be bdea cdbe
00000160: 1ce5 b2bd a68c 85be 9a4e 8d3e 450b 1ebf
00000170: d458 aebe 474c 053f 618c 2a3e f164 77bf

weight f4 [32]
0.35128152 0.46650642 0.6227465 0.5107792 0.6309199 0.47999075 0.45134243 0.56725866
0.5968752 0.6548202 0.4660953 0.45106283 0.3942776 0.4253413 0.48738652 0.3179525
0.633239 0.44397387 0.6932773 0.49352416 0.3171893 0.43399432 0.10289012 0.54257894
0.39051884 0.50565696 0.28547728 0.5790033 0.5239439 0.42233923 0.5013643 0.5108275
00000000: 2cdb b33e eed9 ee3e 516c 1f3f 6dc2 023f
00000010: f783 213f 59c1 f53e 5b16 e73e dd37 113f
00000020: d0cc 183f 4ca2 273f 0ba4 ee3e b5f1 e63e
00000030: c1de c93e 56c6 d93e ba8a f93e acca a23e
00000040: f31b 223f 8b50 e33e 9f7a 313f 33af fc3e
00000050: a366 a23e 8134 de3e 0eb8 d23d 74e6 0a3f
00000060: 16f2 c73e bc72 013f 142a 923e 8f39 143f
00000070: 3021 063f d93c d83e 6959 003f 97c5 023f

bias f4 [32]
0.023622017 0.010025467 0.035155635 0.08670528 0.15532747 0.112432666 0.1228411 0.17410383
0.16738667 0.049594678 0.058881775 0.12868264 -0.1084105 0.048498 0.1925153 0.04423738
0.05237058 0.12526911 0.078222245 0.1962779 0.06537417 -0.52163124 -0.36184788 0.088780254
0.0020881156 0.1707107 -0.041897584 0.14203605 0.07420446 -0.026857818 0.030662172 0.004601653
00000000: f682 c13c db41 243c 5bff 0f3d 8a92 b13d
00000010: 2a0e 1f3e 1943 e63d 1d94 fb3d 4648 323e
00000020: 6967 2b3e ca23 4b3d 042e 713d 62c5 033e
00000030: 5306 debd d7a5 463d bb22 453e 4132 353d
00000040: 8982 563d 8c46 003e fc32 a03d 13fd 483e
00000050: e5e2 853d a089 05bf 2044 b9be 6cd2 b53d
00000060: c4d8 083b c9ce 2e3e cd9c 2bbd e671 113e
00000070: 82f8 973d ed04 dcbc 3c2f fb3c 77c9 963b

running_mean f4 [32]
0.30918232 0.6443117 0.35381496 0.45145145 0.49785534 0.4624779 0.3773262 0.57840705
0.40744114 0.75994825 0.55039823 0.3197652 0.4191073 0.72863036 0.45403653 0.40963537
0.6959272 0.36257765 0.4982843 0.46062964 0.4285793 0.72384214 0.2372829 0.7707901
0.5979824 0.45109612 0.6544957 0.66192985 0.41179082 0.7759388 0.73501647 0.46892372
00000000: 254d 9e3e 9df1 243f 3c27 b53e a524 e73e
00000010: e5e6 fe3e e7c9 ec3e e630 c13e 7c12 143f
00000020: 209c d03e f88b 423f e6e6 0c3f 44b8 a33e
00000030: 3b95 d63e 8587 3a3f 7a77 e83e babb d13e
00000040: 4928 323f c7a3 b93e 1f1f ff3e a6d7 eb3e
00000050: bf6e db3e b84d 393f 4afa 723e 8052 453f
00000060: 6015 193f 12f6 e63e 088d 273f 3c74 293f
00000070: 3fd6 d23e eda3 463f 0a2a 3c3f c516 f03e

running_var f4 [32]
0.30247933 0.60015494 0.418206 0.8036433 0.64292145 0.5531896 0.7513722 0.96463895
0.4780032 3.214712 0.8308073 0.27646068 0.7464544 0.740534 0.6164916 0.50591594
2.0330482 0.38613075 0.5008743 0.57612455 0.4817285 0.81525016 0.20279866 0.9856115
1.543059 0.57522434 0.76997507 0.7209444 0.55936414 0.98328215 1.0779976 0.4517336
00000000: 92de 9a3e c1a3 193f 191f d63e 91bb 4d3f
00000010: 8096 243f d59d 0d3f ee59 403f 94f2 763f
00000020: d6bc f43e d7bd 4d40 caaf 543f 418c 8d3e
00000030: a317 3f3f a393 3d3f 65d2 1d3f b583 013f
00000040: 761d 0240 eeb2 c53e 4c39 003f e67c 133f
00000050: 1ea5 f63e 3cb4 503f 74aa 4f3e 0951 7c3f
00000060: f582 c53f e741 133f 161d 453f d08f 383f
00000070: 7d32 0f3f 61b8 7b3f d3fb 893f a049 e73e

weight f4 [32, 1, 3, 3]
-0.030183606 0.16653298 0.009051197 0.53086895 0.61281157 0.13042483 -0.37015817 -0.15172942
-0.19312897 0.050169513 0.07613823 -0.01376686 0.30560598 -0.08140243 -0.64231986 0.17111248
-0.17794067 -0.55518794 -0.14490435 0.09250852 0.6140102 0.081477076 -0.16178755 -0.04252363
-0.00012791576 -0.012261148 -0.31576547 -0.024472788 0.024751343 -0.2952115 -0.111343145 0.32470143
-0.57619214 -0.12855916 0.2739754 -0.30603066 0.07612305 -0.061130513 -0.24501249 0.044189487
-0.39260173 -0.30640134 0.3968634 0.46285895 0.24780016 -0.27436948 -0.29193154 -0.29437792
-0.35891837 -0.07008066 -0.2581338 0.14702854 0.42812574 0.34138176 -0.33095858 0.37505525
0.0051139924 -0.45576668 0.60708964 -0.21325938 -0.25115916 0.5121727 -0.0910304 -0.045997668
-0.045559686 0.029914891 -0.44620547 0.11262294 0.2015275 -0.29582542 -0.3605476 0.048988335
-0.14264809 -0.4349367 -0.267253 0.5126687 0.4138417 -0.25440294 0.15573746 0.123883784
-0.11285837 0.12279004 0.49100235 0.2280049 0.30727088 0.43361917 0.42811358 -0.021550784
0.18207327 0.19080901 -0.17988966 -0.46536094 -0.092799775 0.2520219 -0.41302815 -0.15248792
0.44511145 0.23127912 -0.15259807 -0.4474075 -0.30213463 0.054337766 -0.2246085 0.18434674
0.48220396 -0.0583786 0.3837976 0.4300087 0.29232824 0.1604976 -0.28218436 0.2666069
0.46835843 0.23147453 -0.11730998 0.24613932 0.37941274 0.094785795 0.076167166 -0.0938219
-0.31973928 -0.25744128 0.05068708 -0.48799816 -0.37612593 0.098995835 0.110640384 -0.19269402
0.08194703 0.08827119 0.4252234 -0.010289864 -0.5056384 0.28894058 0.34090352 0.40781504
-0.20028166 -0.14772233 0.28804314 0.075491406 -0.7952404 -0.24453019 0.10398935 -0.23736657
0.28865165 0.35117456 0.1117363 0.4961147 0.32816434 0.06074575 0.22103237 0.02176402
-0.17883335 0.08218348 -0.32280177 -0.23975009 0.17096657 0.3495715 0.1706072 -0.20786317
0.3212016 0.44458866 -0.0855112 -0.27024293 -0.282444 -0.20353481 0.19304398 0.487751
-0.013004856 0.055073317 0.21360716 -0.10129283 0.045200612 0.090076916 -0.29723054 0.06981328
0.57022995 -0.009868919 0.18214872 0.37939298 -0.29607403 -0.11953009 0.24371627 -0.46846363
0.16340518 0.4904049 -0.013431756 0.48074785 0.49017936 0.025085397 -0.21995623 -0.18442972
-0.11889988 -0.22035427 -0.25460774 -0.12678595 -0.1321115 -0.14469358 -0.21350174 -0.2892981
-0.33011338 -0.207766 -0.23881832 -0.25008875 -0.27350464 -0.23142007 -0.21629679 0.040927794
-0.286283 -0.30379176 0.15821017 -0.30660766 -0.4220849 0.44546166 0.5434798 0.11641955
-0.2300113 0.27766964 0.42175025 0.043172754 0.4155218 0.4928089 0.008174145 0.28705826
0.030018862 -0.24091278 -0.33410648 -0.31119198 0.2500345 0.12962154 -0.36214733 0.2871016
0.3292882 -0.2783297 -0.09201977 0.21470003 0.2791233 0.42657435 0.68711776 0.3631521
-0.1383648 -0.21781456 -0.30114076 -0.13161618 0.20067263 0.4802848 -0.34039706 -0.18713336
0.3449378 -0.12034114 0.23829561 0.17647143 -0.27894777 -0.5006155 -0.02929942 -0.14539337
00000000: 9c43 f7bc 9f87 2a3e 794b 143c 07e7 073f
00000010: 38e1 1c3f 168e 053e 5f85 bdbe f55e 1bbe
00000020: 9ac3 45be 8c7e 4d3d 5cee 9b3d 658e 61bc
00000030: 6378 9c3e 51b6 a6bd 136f 24bf 1c38 2f3e
00000040: 1436 36be cc20 0ebf ce61 14be 1b75 bd3d
00000050: c62f 1d3f 74dd a63d a3ab 25be 422d 2ebd
00000060: 2021 06b9 fbe2 48bc 03ac a1be 287b c8bc
00000070: 54c3 ca3c f625 97be e007 e4bd 443f a63e
00000080: 5481 13bf 03a5 03be 8146 8c3e 0db0 9cbe
00000090: 67e6 9b3d fd63 7abd 8ee4 7abe 0900 353d
000000a0: 1803 c9be a3e0 9cbe ae31 cb3e d9fb ec3e
000000b0: 53bf 7d3e 287a 8cbe 0d78 95be b4b8 96be
000000c0: 26c4 b7be 7386 8fbd 1d2a 84be a68e 163e
000000d0: 4c33 db3e 97c9 ae3e 6773 a9be 3e07 c03e
000000e0: 4793 a73b 405a e9be 3a6a 1b3f ab60 5abe
000000f0: ef97 80be c01d 033f 256e babd 0d68 3cbd
00000100: cb9c 3abd 1310 f53c 0b75 e4be dba6 e63d
00000110: 3a5d 4e3e 6e76 97be b299 b8be fea7 483d
00000120: 5712 12be 06b0 debe 63d5 88be 423e 033f
00000130: 0fe3 d33e 1a41 82be a479 1f3e c8b6 fd3d
00000140: 4a22 e7bd 5879 fb3d a964 fb3e 1e7a 693e
00000150: 9c52 9d3e 5503 de3e b431 db3e 458b b0bc
00000160: 6a71 3a3e 7063 433e ff34 38be ca43 eebe
00000170: cf0d bebd 0409 813e 6d78 d3be cb25 1cbe
00000180: a6e5 e33e 6fd4 6c3e ab42 1cbe 9912 e5be
00000190: 64b1 9abe 4791 5e3d c5ff 65be 64c5 3c3e
000001a0: 70e3 f63e 661e 6fbd 1e81 c43e 1a2a dc3e
000001b0: 0cac 953e 7c59 243e 787a 90be b380 883e
000001c0: adcc ef3e a907 6d3e 3740 f0bd f20b 7c3e
000001d0: 6342 c23e 0e1f c23d 88fd 9b3d b225 c0bd
000001e0: deb4 a3be 58cf 83be 419d 4f3d e5da f9be
000001f0: 9493 c0be 54be ca3d 6d97 e23d 9551 45be
00000200: d8d3 a73d 87c7 b43d e2b6 d93e d196 28bc
00000210: 8571 01bf 05f0 933e e88a ae3e 22cd d03e
00000220: a316 4dbe 8644 17be 647a 933e 3d9b 9a3d
00000230: e094 4bbf 1f66 7abe 5ef8 d43d 3910 73be
00000240: 26ca 933e 27cd b33e 00d6 e43d bf02 fe3e
00000250: 2805 a83e 89d0 783d 4f56 623e 754a b23c
00000260: 1720 37be d04f a83d 4646 a5be 0c81 75be
00000270: dc11 2f3e 09fb b23e a7b3 2e3e 15da 54be
00000280: 8974 a43e 20a1 e33e 7f20 afbd 485d 8abe
00000290: 809c 90be 6e6b 50be 52ad 453e 80ba f93e
000002a0: 5212 55bc 8f94 613d d6bb 5a3e 9e72 cfbd
000002b0: 4724 393d 3f7a b83d 9a2e 98be 44fa 8e3d
000002c0: 97fa 113f 3fb1 21bc 3285 3a3e cc3f c23e
000002d0: 0497 97be 31cc f4bd c290 793e 77da efbe
000002e0: b053 273e 5a16 fb3e de10 5cbc 9524 f63e
000002f0: caf8 fa3e e47f cd3c 353c 61be 25db 3cbe
00000300: c881 f3bd 8da4 61be f25b 82be 2dd4 01be
00000310: 3d48 07be 8e2a 14be 33a0 5abe e11e 94be
00000320: 9f04 a9be 9cc0 54be ca8c 74be a20b 80be
00000330: cd08 8cbe 62f9 6cbe e87c 5dbe e7a3 273d
00000340: af93 92be 988a 9bbe d901 223e aefb 9cbe
00000350: 831b d8be 8d13 e43e 7e21 0b3f 5f6d ee3d
00000360: 1588 6bbe b72a 8e3e a6ef d73e ead5 303d
00000370: 46bf d43e 7351 fc3e d9ec 053c 4df9 923e
00000380: 1eea f53c d7b1 76be 0110 abbe 8e54 9fbe
00000390: 8604 803e 82bb 043e 606b b9be fbfe 923e
000003a0: 7798 a83e 3b81 8ebe dc74 bcbd 53da 5b3e
000003b0: 40e9 8e3e f467 da3e f3e6 2f3f 12ef b93e
000003c0: 81af 0dbe c80a 5fbe 1f2f 9abe 64c6 06be
000003d0: 207d 4d3e e4e7 f53e 8648 aebe e39f 3fbe
000003e0: b09b b03e 6a75 f6bd c403 743e edb4 343e
000003f0: 3ed2 8ebe 5628 00bf 5605 f0bc 00e2 14be

weight f4 [32, 32, 1, 1]
-0.2210039 -0.24566722 -0.43484446 -0.106329516 0.10478507 0.05278378 -0.0073793666 -0.21690936
0.03598604 0.15367408 -0.140302 -0.07072701 -0.35405254 0.015233951 0.008818138 0.13323057
0.08473596 -0.3112475 -0.32162517 0.10587917 -0.08678256 0.25721702 0.42355204 -0.16434178
0.042621084 -0.08313782 0.3898441 0.1133625 0.18695985 -0.2158922 -0.028000355 0.11439917
0.25030684 -0.20429438 -0.070389986 0.08501182 -0.11049582 -0.15535757 -0.023392808 0.002891337
-0.015242969 0.38055965 0.057954352 -0.08669298 -0.4319688 -0.02675396 -0.03956752 -0.13997158
-0.59614676 -0.12761447 0.03026813 -0.0395814 -0.24903269 0.04666348 0.057792272 -0.0048508067
-0.3820739 0.026911283 -0.3085024 0.10490906 -0.1872623 0.06878598 -0.15771407 0.08962789
0.11033764 -0.022874517 0.1176833 -0.14129339 0.081234396 0.32290688 -0.37787637 0.12590036
0.15714335 0.03577066 0.0652342 0.08337178 0.20157403 -0.12126658 0.14503972 -0.052220587
0.15375389 0.06140089 0.12832111 0.07021338 0.16880956 -0.75446755 -0.42758062 -0.10074344
0.06522476 0.341988 -0.07037325 0.17859964 -0.08888931 0.3374344 0.18882719 -0.076359555
0.32018572 -0.11343404 -0.018686825 -0.250903 -0.013096244 -0.1492835 -0.024732899 0.20379403
-0.20971613 -0.2124276 -0.041263442 -0.044663783 0.07193957 -0.40867212 -0.03148928 0.11685193
0.20972617 0.004566959 0.029761026 0.17352787 0.010202805 0.3559903 0.3167211 0.143477
0.31325546 -0.03946268 -0.5305073 0.015633428 0.21889348 0.16366814 0.17329857 -0.01994392
0.11827614 0.17526533 0.093048036 0.18880549 0.2597743 0.027989544 -0.05949883 -0.11679626
0.018756215 -0.14360687 -0.022379091 0.37226337 -0.13518399 0.04235947 -0.08984578 -0.058666978
-0.3804198 0.21574228 -0.28366148 0.11247668 0.30406594 0.015412945 -0.0152852 -0.1678946
-0.36747867 -0.06169716 0.06516885 0.021058297 -0.07379381 -0.19829006 -0.039789863 -0.018732024
0.13790676 0.22081771 0.100328445 0.17617618 0.04011876 -0.28464007 0.04100863 -0.2234441
0.044252824 0.03311119 0.02123043 -0.06404552 -0.2712907 0.253692 -0.018765895 0.144102
0.10678508 -0.00090646505 -0.16524285 0.29424632 0.065172076 0.46093938 0.26628196 0.26146126
-0.2936489 -0.13814624 -0.17044634 -0.38902467 -0.2860071 -0.22323367 0.015335055 0.12789455
0.018528333 0.2076317 -0.06305771 -0.565858 -0.14841531 -0.0817879 0.14854437 0.18009149
-0.27775016 -0.22649732 0.34352604 0.2708262 -0.5950047 -0.19602625 0.17899391 -0.11069665
-0.49552274 -0.0023647395 0.09963055 0.06824928 0.007919254 0.16141069 0.14970425 0.09183113
-0.34711033 -0.29238394 0.03904302 0.02236592 0.080215394 0.02285394 0.02444125 -0.0057095876
-0.06652361 -0.30238694 0.07698656 -0.19590306 0.17037302 0.028425442 -0.10945356 -0.5559941
0.19439347 0.2886613 -0.07867255 0.16515343 0.021359978 0.22446306 0.009220723 -0.1902295
0.27862653 0.21718144 -0.07765641 -0.22696365 0.18543303 0.20736784 0.08271982 -0.2751186
0.08786934 -0.0006829556 -0.031966913 0.11006081 0.112824745 0.0726297 -0.013459891 -0.09060053
00000000: d94e 62be 3090 7bbe efa3 debe 4ac3 d9bd
00000010: 8e99 d63d ce33 583d 9dce f1bb 7d1d 5ebe
00000020: 1966 133d bd5c 1d3e 54ab 0fbe 53d9 90bd
00000030: 6046 b5be d297 793c f479 103c 986d 083e
00000040: 0c8a ad3d d55b 9fbe 0eac a4be 2ed7 d83d
00000050: 0ebb b1bd f3b1 833e d0db d83e 3649 28be
00000060: 7293 2e3d 2944 aabd a599 c73e 992a e83d
00000070: 6772 3f3e d812 5dbe 0061 e5bc 1d4a ea3d
00000080: 3828 803e 8c32 51be a028 90bd ad1a ae3d
00000090: a24b e2bd 0e16 1fbe 46a2 bfbc 967c 3d3b
000000a0: a5bd 79bc b7d8 c23e 8b61 6d3d 178c b1bd
000000b0: 042b ddbe 1f2b dbbc 8d11 22bd b654 0fbe
000000c0: 139d 18bf 5ead 02be dff4 f73c 1b20 22bd
000000d0: 6d02 7fbe 3522 3f3d 97b7 6c3d 84f3 9ebb
000000e0: 319f c3be 0d75 dc3c 07f4 9dbe 90da d63d
000000f0: b0c1 3fbe aadf 8c3d cc7f 21be d48e b73d
00000100: b3f8 e13d 5763 bbbc f103 f13d 37af 10be
00000110: 385e a63d 0d54 a53e 0379 c1be 06ec 003e
00000120: 30ea 203e 4184 123d 8299 853d d3be aa3d
00000130: 6c69 4e3e 9d5a f8bd 4b85 143e 41e5 55bd
00000140: a971 1d3e 807f 7b3d 9c66 033e 08cc 8f3d
00000150: 6adc 2c3e c924 41bf d9eb dabe 9452 cebd
00000160: 8f94 853d 0d19 af3e da1f 90bd d3e2 363e
00000170: 990b b6bd 34c4 ac3e ea5b 413e 6662 9cbd
00000180: 62ef a33e 1b50 e8bd 1d15 99bc 5c76 80be
00000190: a191 56bc c6dd 18be a69c cabc 62af 503e
000001a0: d3bf 56be 9f86 59be db03 29bd 5ff1 36bd
000001b0: 0e55 933d 793d d1be e7fa 00bd 1150 ef3d
000001c0: 75c2 563e 6ea6 953b 65cd f33c 4ab1 313e
000001d0: aa29 273c 5c44 b63e 4529 a23e a2eb 123e
000001e0: 0563 a03e 9fa3 21bd 54cf 07bf ad11 803c
000001f0: 9d25 603e 9f98 273e 2e75 313e 6f61 a3bc
00000200: c33a f23d c178 333e f88f be3d 3a56 413e
00000210: 2301 853e 544a e53c 0cb5 73bd e132 efbd
00000220: a2a6 993c ae0d 13be 5b54 b7bc 4e99 be3e
00000230: ac6d 0abe 2081 2d3d 1001 b8bd c94c 70bd
00000240: 62c6 c2be 8beb 5c3e 143c 91be 2c5a e63d
00000250: 88ae 9b3e 9486 7c3c c76e 7abc 90ec 2bbe
00000260: 2a26 bcbe 29b6 7cbd 3f77 853d 7382 ac3c
00000270: 3621 97bd 8d0c 4bbe b2fa 22bd e773 99bc
00000280: 6e37 0d3e 0a1e 623e 0079 cd3d 8767 343e
00000290: 9253 243d 58bc 91be aaf8 273d 88ce 64be
000002a0: 7342 353d 999f 073d 70eb ad3c 4c2a 83bd
000002b0: 9de6 8abe ebe3 813e efba 99bc 7a8f 133e
000002c0: 23b2 da3d d79f 6dba 6c35 29be 74a7 963e
000002d0: f078 853d 3f00 ec3e 1c56 883e 40de 853e
000002e0: 2659 96be 3576 0dbe 7c89 2ebe 3e2e c7be
000002f0: 866f 92be 5e97 64be e23f 7b3c caf6 023e
00000300: bbc8 973c 689d 543e 6724 81bd 12dc 10bf
00000310: 2ffa 17be 6a80 a7bd 041c 183e e769 383e
00000320: 4535 8ebe eaee 67be a5e2 af3e bba9 8a3e
00000330: 3a52 18bf 1bbb 48be 2e4a 373e edb4 e2bd
00000340: 28b5 fdbe bff9 1abb 1a0b cc3d 47c6 8b3d
00000350: c2bf 013c d848 253e 124c 193e f611 bc3d
00000360: 72b8 b1be 59b3 95be 93eb 1f3d bc38 b73c
00000370: f847 a43d 3038 bb3c 0439 c83c 7e17 bbbb
00000380: 883d 88bd 76d2 9abe 21ab 9d3d d09a 48be
00000390: 4476 2e3e 79dc e83c 3029 e0bd a155 0ebf
000003a0: 150f 473e 6acb 933e 131f a1bd fb1d 293e
000003b0: 1ffb ae3c a5d9 653e 8412 173c 86cb 42be
000003c0: 23a8 8e3e d064 5e3e 530a 9fbd 2969 68be
000003d0: 28e2 3d3e 3c58 543e 0269 a93d 58dc 8cbe
000003e0: d7f4 b33d 6008 33ba bdef 02bd 9067 e13d
000003f0: a910 e73d e1be 943d e086 5cbc c58c b9bd

weight f4 [32]
1.0747582 0.897677 0.79017276 0.8489561 0.3968349 0.7342832 1.0209758 0.65251297
0.796498 1.2035848 0.8273423 0.81591165 0.99477935 0.8546687 0.7629063 1.0409834
0.86688954 0.7774439 0.64058566 0.71082026 1.066974 0.7424581 1.0714635 0.5999372
1.1607713 0.70909464 1.1623464 0.5445251 0.83242524 0.80545855 0.7637887 0.6569706
00000000: ad91 893f 29ce 653f c348 4a3f 3055 593f
00000010: f22d cb3e fcf9 3b3f 56af 823f 170b 273f
00000020: 4be7 4b3f 110f 9a3f b4cc 533f 96df 503f
00000030: dca9 7e3f 91cb 5a3f d44d 433f f23e 853f
00000040: 79ec 5d3f 9006 473f 6cfd 233f 51f8 353f
00000050: 9b92 883f bc11 3e3f b725 893f 7c95 193f
00000060: 2794 943f 3a87 353f c4c7 943f ff65 0b3f
00000070: d219 553f 8832 4e3f a887 433f 3a2f 283f

bias f4 [32]
-0.00055351935 -0.050588828 -0.023633799 -0.091888145 0.21159554 -0.010091911 -0.050834093 0.16836503
0.08656331 0.02960084 0.059429936 0.11119792 -0.002823864 -0.023294594 0.30315465 0.046500918
-0.038716342 0.11377099 0.045729388 0.19048522 0.05846761 -0.7017734 -0.11030944 0.008335552
-0.014419887 0.19643815 0.03270089 0.039653707 0.021688012 -0.23707318 0.11635874 0.019625725
00000000: 0e1a 11ba 3b36 4fbd ab9b c1bc da2f bcbd
00000010: 80ac 583e 8b58 25bc 6937 50bd e267 2c3e
00000020: 1b48 b13d 767d f23c ce6c 733d bcbb e33d
00000030: 9410 39bb 4ed4 bebc 1637 9b3e bf77 3e3d
00000040: 0795 1ebd c400 e93d bd4e 3b3d 8f0e 433e
00000050: bc7b 6f3d 6ca7 33bf eae9 e1bd d791 083c
00000060: 6441 6cbc 1527 493e 5ef1 053d ed6b 223d
00000070: 0fab b13c 50c3 72be 7e4d ee3d 21c6 a03c

running_mean f4 [32]
0.6734254 0.33552778 0.063267134 0.61636 0.32125854 0.8081281 0.5830478 0.4230998
0.6140702 0.21880686 0.7228941 0.4440958 0.49784186 0.53351337 0.25854 0.6895511
0.646221 0.2985436 0.49354932 0.21304397 0.24980217 0.18695055 0.12609857 0.49894172
0.6280701 0.3696531 0.25838035 0.22344671 0.76514864 0.08053225 0.5426805 0.4291771
00000000: 9b65 2c3f 4cca ab3e 3392 813d c5c9 1d3f
00000010: 007c a43e 7ce1 4e3f 9f42 153f 89a0 d83e
00000020: b433 1d3f e80e 603e 960f 393f 8660 e33e
00000030: 21e5 fe3e 5594 083f 5b5f 843e 6c86 303f
00000040: bd6e 253f b5da 983e 7fb2 fc3e 3328 5a3e
00000050: 24cc 7f3e f76f 3f3e fc1f 013e 4a75 ff3e
00000060: 34c9 203f 2c43 bd3e 6e4a 843e 37cf 643e
00000070: c8e0 433f 18ee a43d 1ced 0a3f 1abd db3e

running_var f4 [32]
0.2285117 0.16321953 0.079485424 0.25567013 0.20059575 0.47667873 0.19681524 0.35068285
0.41725114 0.43802628 0.35398507 0.17440876 0.23030463 0.22785701 0.24343914 0.29102665
0.17555399 0.10976241 0.1675397 0.20941485 0.29008976 0.1260749 0.10868402 0.28372374
0.3170478 0.1502612 0.39353633 0.19997288 0.31581628 0.05164098 0.14938742 0.12628433
00000000: f9fe 693e 0523 273e 41c9 a23d 32e7 823e
00000010: f968 4d3e 3c0f f43e ef89 493e b48c b33e
00000020: f1a1 d53e fb44 e03e 883d b53e 3698 323e
00000030: fad4 6b3e 5953 693e 1c48 793e 7201 953e
00000040: 6dc4 333e 1dcb e03d 878f 2b3e d970 563e
00000050: a586 943e c719 013e ba95 de3d 3d44 913e
00000060: 1754 a23e 12de 193e 987d c93e b1c5 4c3e
00000070: acb2 a13e 7e85 533d 04f9 183e ae50 013e

weight f4 [32, 1, 3, 3]
-0.5523174 0.5104105 0.10222564 0.6421198 -0.4715481 -0.17801067 -0.09278236 0.10912043
-0.108708076 -0.0048566023 -0.14594606 -0.13782908 0.2712605 -0.4476684 -0.67589647 0.28584588
0.64398897 0.1250987 -0.001308121 -0.13316746 0.15993504 -0.06211603 -1.0262998 0.5693848
0.006608658 -0.009029854 0.24595766 -0.12153927 -0.9022421 -0.17257935 -0.019112369 0.31265497
0.7140315 -0.05368585 0.052714095 0.17518775 -0.13824001 -0.19282745 -0.1976955 -0.019548256
0.75052005 0.96423286 -0.19241467 -0.2323745 -0.015509176 0.20605193 0.20206396 -0.113259465
0.38063547 0.6686802 -0.9177899 -0.07403023 0.23459679 -0.46731058 0.13607799 -0.16575642
0.052218895 0.351485 -0.713912 -0.1708727 0.18004039 -0.32502195 0.04867235 -0.11484996
-0.5277567 -0.23465292 0.4163696 0.9864171 0.15915485 -0.11086777 0.43452764 -0.118474945
-0.07554515 0.42467594 0.014474843 0.536837 -1.080057 -0.1711036 0.21877082 -0.3216394
-0.18876705 -0.120815404 0.17158921 -0.12484943 0.06474287 0.753985 0.14723168 -0.012205947
0.7193615 0.00049662136 -0.28944474 -0.2331215 -0.117514744 0.22181307 1.2291435 0.2851963
-0.2773055 0.21851446 -0.27210054 0.39019355 0.18525738 0.3440054 -0.44460198 -0.87164915
-0.30190247 0.043988813 -0.12947224 0.16804288 0.04626617 0.39191985 -0.12858406 0.5372045
0.27514753 -0.6103396 0.014107764 -0.00044085615 -0.01896699 0.07825169 0.03083284 -0.025969349
-0.410227 0.87237924 0.07597091 -0.06154512 -0.26021796 0.4153472 -0.0634235 0.03750184
0.03236646 0.33790636 0.82384396 0.016991172 0.07364337 0.07731028 -0.07837826 -0.3380932
-0.23217908 -0.22675048 0.4599595 0.92577964 0.033266902 -0.06875841 0.3730967 -0.32546306
-0.06077058 0.2272983 0.1276541 -0.021829441 0.66408753 -0.32749504 0.12230993 -0.8517572
0.11701118 0.115754016 0.040565077 -0.03707231 -0.14389206 -0.17459653 -0.8468402 0.29215974
-0.11532493 -0.10539968 -0.1391132 0.554407 -0.02106197 0.41847274 -1.2195141 0.13576844
-0.043896563 0.15148316 -0.094090104 -0.016473537 -0.192088 0.078840524 -0.09745964 0.9277819
0.56544197 -0.054532107 0.027275361 -0.16527261 0.09370399 0.5170366 -0.19627218 -0.22662605
0.5262885 0.49710712 0.020536827 0.044743832 -0.09803786 -0.031481747 0.08459001 0.15926382
0.22978032 0.42511582 0.17947416 -0.056379244 0.11896233 0.024833629 -0.13063847 0.41530508
-0.009834979 -0.040234007 0.7061519 0.10848025 0.08485041 -0.10050174 0.08613907 0.20171064
0.7360546 0.59082776 -0.21072523 -0.662283 -0.18350568 -0.15104562 -0.32256657 -0.17102778
0.4432907 -0.2866568 -0.52807575 0.60239834 0.16386847 -0.6333532 -0.16970126 0.096098594
0.22052549 -0.075524084 -0.24477202 -0.124432564 0.35398537 0.60994285 0.046330117 0.096261166
0.35078475 -0.0010237147 -0.15462281 0.053795062 -0.12857245 0.04522118 0.8680345 0.24961123
-0.054813553 0.34999636 0.11285041 -0.34498712 0.210075 0.052434295 0.052882027 0.5327132
0.8598745 -0.21967994 0.13549669 -0.14081371 -0.092217244 1.001351 0.10247894 -0.09099045
00000000: ac64 0dbf 43aa 023f ad5b d13d f761 243f
00000010: c16e f1be 6e48 36be ae04 bebd 887a df3d
00000020: 57a2 debd 2224 9fbb e272 15be 1123 0dbe
00000030: a8e2 8a3e cb34 e5be 8d07 2dbf 645a 923e
00000040: 76dc 243f e019 003e 4275 abba 0d5d 08be
00000050: 03c6 233e 616d 7ebd cb5d 83bf 34c3 113f
00000060: 718d d83b f4f1 13bc 53dc 7b3e 95e9 f8bd
00000070: 57f9 66bf a4b8 30be 8b91 9cbc 5014 a03e
00000080: c5ca 363f b2e5 5bbd bcea 573d 6b64 333e
00000090: ca8e 0dbe 8f74 45be b070 4abe aa23 a0bc
000000a0: 1522 403f f7d7 763f 5a08 45be 95f3 6dbe
000000b0: 331a 7ebc 47ff 523e dbe9 4e3e 94f4 e7bd
000000c0: a7e2 c23e a02e 2b3f 47f4 6abf 299d 97bd
000000d0: 243a 703e 5543 efbe 0758 0b3e 0dbc 29be
000000e0: 7be3 553d d8f5 b33e f0c2 36bf 41f9 2ebe
000000f0: 825c 383e 4769 a6be a85c 473d 7536 ebbd
00000100: 101b 07bf db48 70be 652e d53e d585 7c3f
00000110: 7df9 223e a40e e3bd 687a de3e fea2 f2bd
00000120: 6ab7 9abd 206f d93e e427 6d3c 266e 093f
00000130: 4f3f 8abf c835 2fbe 7505 603e ebad a4be
00000140: 264c 41be 116e f7bd 15b5 2f3e 0fb1 ffbd
00000150: e997 843d 2905 413f e7c3 163e 74fb 47bc
00000160: 1328 383f b22f 023a 1a32 94be 67b7 6ebe
00000170: 92ab f0bd f722 633e 9354 9d3f 4005 923e
00000180: fdfa 8dbe 41c2 5f3e c350 8bbe 73c7 c73e
00000190: 1cb4 3d3e 7a21 b03e dfa2 e3be 6624 5fbf
000001a0: f692 9abe 9d2d 343d 5f94 04be 6f13 2c3e
000001b0: 9881 3d3d b8a9 c83e 8aab 03be 3c86 093f
000001c0: 23e0 8c3e 373f 1cbf 4024 673c b622 e7b9
000001d0: a960 9bbc 6c42 a03d 2795 fc3c acbd d4bc
000001e0: 4609 d2be 3f54 5f3f a396 9b3d bc16 7cbd
000001f0: 4a3b 85be 63a8 d43e 2ee4 81bd 889b 193d
00000200: b192 043d 1002 ad3e 70e7 523f 1231 8b3c
00000210: 56d2 963d da54 9e3d c884 a0bd 8d1a adbe
00000220: 5ac0 6dbe 4731 68be d07f eb3e e5ff 6c3f
00000230: e042 083d 36d1 8cbd 8806 bf3e 18a3 a6be
00000240: 92ea 78bd e3c0 683e c2b7 023e a8d3 b2bc
00000250: a401 2a3f 6ead a7be a17d fa3d c30c 5abf
00000260: 8fa3 ef3d 7110 ed3d 9127 263d 22d9 17bd
00000270: 7158 13be 6fc9 32be 85ca 58bf f695 953e
00000280: 7a2f ecbd cadb d7bd b173 0ebe 9eed 0d3f
00000290: 278a acbc 0f42 d63e 0a19 9cbf e206 0b3e
000002a0: e2cc 33bd 671e 1b3e 50b2 c0bd 83f3 86bc
000002b0: b7b2 44be 2477 a13d eb98 c7bd 1d83 6d3f
000002c0: cec0 103f 0f5d 5fbd 9470 df3c 393d 29be
000002d0: e1e7 bf3d 835c 043f 93fb 48be a910 68be
000002e0: d8ba 063f d384 fe3e d93c a83c 4f45 373d
000002f0: 13c8 c8bd 01f3 00bd 873d ad3d 0e16 233e
00000300: 884b 6b3e c8a8 d93e 13c8 373e eced 66bd
00000310: 86a2 f33d e56f cb3c 17c6 05be dea2 d43e
00000320: e422 21bc 6acc 24bd 5fc6 343f e52a de3d
00000330: 0dc6 ad3d dbd3 cdbd ae69 b03d 3c8d 4e3e
00000340: 136e 3c3f 7d40 173f 5bc8 57be 618b 29bf
00000350: eae8 3bbe b4ab 1abe 7227 a5be e821 2fbe
00000360: 00f7 e23e aec4 92be f92f 07bf c736 1a3f
00000370: 23cd 273e 6f23 22bf 2bc6 2dbe 57cf c43d
00000380: 6fd1 613e 5fac 9abd 84a5 7abe 80d6 febd
00000390: 923d b53e 3725 1c3f a6c4 3d3d 9324 c53d
000003a0: 0f9a b33e 2a2e 86ba 7155 1ebe 3658 5c3d
000003b0: 7fa8 03be d839 393d 8237 5e3f 169a 7f3e
000003c0: 2d84 60bd b932 b33e 1e1e e73d 27a2 b0be
000003d0: e71d 573e 58c5 563d d39a 583d e45f 083f
000003e0: bc20 5c3f c7f3 60be a5bf 0a3e 7831 10be
000003f0: 65dc bcbd 452c 803f 7ae0 d13d 3359 babd

weight f4 [32, 32, 1, 1]
-0.041838937 -0.15181167 0.461333 0.060992878 -0.15281132 -0.33095357 0.1520201 0.16377854
0.07925973 0.083303824 0.00095223525 0.28309602 0.029183194 0.027674329 0.37192768 -0.5159664
-0.11555689 0.18929094 -0.108859554 -0.015228194 0.1406905 -0.20069972 0.0020233176 0.19199301
0.0019494842 -0.37442133 -0.20905693 0.3568682 -0.10528277 0.12037507 0.011689099 0.31824175
0.13456702 -0.20844235 0.0978442 -0.41863346 -0.69270885 0.040862355 -0.12905762 -0.2493391
0.07093916 0.071719736 -0.29563266 0.18825507 -0.10954178 0.020590916 -0.16099831 0.001981196
-0.063052095 -0.17181432 -0.027816445 -0.26814508 0.3392862 -0.15804632 0.091834866 -0.29659864
-0.33790714 0.21122675 0.4849643 -0.014677674 0.67959934 0.07289549 0.038531236 0.12577507
-0.021807585 -0.052727617 -0.0941795 0.068866305 0.6912314 -0.14656578 -0.22810191 0.37498513
-0.010566273 0.08086 0.13087267 -0.022493891 0.004163998 0.018276073 0.070944615 -0.03394326
0.11163655 -0.13901156 -0.0218221 0.046533473 0.020402562 0.012689939 -0.022057826 0.13883285
0.16581847 0.35272336 0.20598339 0.36966428 0.045598354 -0.70221037 -0.10732746 -0.2075132
0.25253576 -0.06732272 -0.2565117 -0.013286448 -0.09682887 0.043208417 0.081664056 -0.040377717
-0.39593095 -0.25772706 -0.026260165 0.08151786 -0.2001476 -0.046888996 -0.5444883 -0.017796148
-0.7076508 -0.19788624 0.7184385 0.0076074563 0.00963745 0.14806691 -0.08514977 0.078098245
-0.09828133 -0.17898303 -0.042714417 -0.023126591 -0.04454365 -0.0074897297 0.20983687 0.3998021
0.17408855 -0.1279604 0.3381584 0.15398008 -0.18619052 0.12751245 0.7239554 0.21494335
0.74095255 -0.031145232 -0.04336265 0.0013643766 0.6739905 0.37838337 -0.21598879 0.11706863
-0.17484632 0.14034918 -0.22846878 -0.036866557 0.0014163302 0.06424116 0.041983377 0.11950872
-0.29104233 0.20914137 -0.14365631 -0.17829905 -0.03679231 -0.09569727 0.22850358 -0.10912501
-0.020741796 0.04676483 -0.024903234 0.018015131 0.31424254 0.36848336 0.012382941 -0.026308341
0.050313655 0.09671954 0.1781748 -0.18515703 0.13673747 -0.08288957 0.12234913 -0.06188663
-0.091878526 -0.12105757 0.16470031 0.14634983 0.15384625 -0.18201265 0.019929046 -0.18206511
-0.05116128 -0.12510875 -0.99091226 -0.43113664 0.232347 0.19697858 -0.020969925 -0.0939333
-0.0459459 -0.051701616 -0.035158474 -0.043006465 0.12227046 -0.09522662 0.12062331 0.23979756
-0.10313406 -0.48561394 0.13411741 -0.26052883 -0.058381185 -0.042437498 -0.018611602 0.067388
-0.020128636 0.051876005 0.029661175 0.6624196 0.13671754 -0.02532634 -0.2679257 -0.13284054
-0.16789454 0.26756382 0.13777012 0.53452176 0.15523906 -0.53077084 -0.113427326 -0.23410735
0.08643241 0.61959714 0.013000984 0.32665774 -0.24327417 -0.15125042 -0.11413197 -0.5187665
-0.06660777 -0.1295664 0.2954071 -0.09295912 0.04133759 -0.103422284 -0.015264977 -0.30296353
0.058830686 -0.19705161 -0.021671707 -0.26824504 -0.06611286 0.1374692 0.19046748 -0.6087336
0.3867942 0.17731866 0.07496397 -0.11256853 0.09016701 -0.046125013 0.033336744 0.02438473
00000000: 4e5f 2bbd 8574 1bbe d733 ec3e abd3 793d
00000010: 927a 1cbe bf72 a9be 28ab 1b3e 90b5 273e
00000020: ed52 a23d 329b aa3d 6d9f 793a f6f1 903e
00000030: 9811 ef3c 46b5 e23c 4e6d be3e 6016 04bf
00000040: 17a9 ecbd 7cd5 413e c2f1 debd ad7f 79bc
00000050: 2c11 103e 3a84 4dbe a399 043b d199 443e
00000060: d685 ff3a 27b4 bfbe 0513 56be 6eb7 b63e
00000070: 7e9e d7bd 3487 f63d a283 3f3c 95f0 a23e
00000080: f0cb 093e e971 55be 8a62 c83d 2057 d6be
00000090: 5e55 31bf 495f 273d ae27 04be c052 7fbe
000000a0: 8d48 913d cce1 923d 2a5d 97be f0c5 403e
000000b0: 7157 e0bd 48ae a83c bedc 24be f4d6 013b
000000c0: 7521 81bd 18f0 2fbe 50df e3bc 504a 89be
000000d0: ecb6 ad3e e5d6 21be eb13 bc3d c7db 97be
000000e0: 2a02 adbe d34b 583e 3e4d f83e a07a 70bc
000000f0: 39fa 2d3f 3b4a 953d eed2 1d3d 2ecb 003e
00000100: d2a5 b2bc eaf8 57bd 2fe1 c0bd c709 8d3d
00000110: 8bf4 303f 5715 16be 8c93 69be 0dfe bf3e
00000120: 291e 2dbc ed99 a53d 7c03 063e 1c45 b8bc
00000130: 2672 883b b4b7 953c 694b 913d 1608 0bbd
00000140: b4a1 e43d 0c59 0ebe 43c4 b2bc e299 3e3d
00000150: 4623 a73c 76e9 4f3c 9db2 b4bc 332a 0e3e
00000160: 51cc 293e 2898 b43e 4fed 523e a344 bd3e
00000170: 57c5 3a3d 0fc4 33bf 80ce dbbd 577e 54be
00000180: 5e4c 813e 7fe0 89bd 8055 83be 67af 59bc
00000190: 374e c6bd 4ffb 303d 7c3f a73d 1b63 25bd
000001a0: 76b7 cabe cdf4 83be 8f1f d7bc d6f2 a63d
000001b0: 7ef3 4cbe ad0e 40bd 9663 0bbf 3ac9 91bc
000001c0: 9a28 35bf b1a2 4abe 96eb 373f f847 f93b
000001d0: 65e6 1d3c da9e 173e 0163 aebd f9f1 9f3d
000001e0: b947 c9bd 5447 37be 50f5 2ebd fa73 bdbc
000001f0: 6773 36bd 686c f5bb 7adf 563e dcb2 cc3e
00000200: 4544 323e 0d08 03be 1923 ad3e f4ac 1d3e
00000210: baa8 3ebe a092 023e 2455 393f 1c1a 5c3e
00000220: 11af 3d3f 4924 ffbc 099d 31bd e2d4 b23a
00000230: a48a 2c3f 77bb c13e 2a2c 5dbe aec1 ef3d
00000240: ea0a 33be b2b7 0f3e b8f3 69be 6301 17bd
00000250: 28a4 b93a df90 833d c3f6 2b3d fdc0 f43d
00000260: 8003 95be 2829 563e a41a 13be 0794 36be
00000270: 89b3 16bd eefc c3bd d8fc 693e ef7c dfbd
00000280: b3ea a9bc 7a8c 3f3d de01 ccbc 7894 933c
00000290: 66e4 a03e daa9 bc3e d2e1 4a3c 9784 d7bc
000002a0: b115 4e3d e514 c63d 7473 363e ce99 3dbe
000002b0: e804 0c3e 02c2 a9bd 2e92 fa3d d67c 7dbd
000002c0: cf2a bcbd 08ed f7bd 33a7 283e bbdc 153e
000002d0: df89 1d3e 8661 3abe 3d42 a33c 476f 3abe
000002e0: 7e8e 51bd 821c 00be 6dac 7dbf f1bd dcbe
000002f0: 5fec 6d3e c1b4 493e 1fc9 abbc 1a60 c0bd
00000300: c531 3cbd 13c5 53bd 5502 10bd 8c27 30bd
00000310: ef68 fa3d 2d06 c3bd 5b09 f73d 7e8d 753e
00000320: f337 d3bd 64a2 f8be 1356 093e 0964 85be
00000330: 1c21 6fbd f1d2 2dbd 5c77 98bc b802 8a3d
00000340: cfe4 a4bc ef7b 543d fefb f23c 5594 293f
00000350: afff 0b3e 2f79 cfbc 8f2d 89be 5a07 08be
00000360: 8cec 2bbe 20fe 883e 9c13 0d3e 6bd6 083f
00000370: fdf6 1e3e 99e0 07bf 964c e8bd d6b9 6fbe
00000380: 7a03 b13d eb9d 1e3f 1402 553c af3f a73e
00000390: dd1c 79be 64e1 1abe 06be e9bd e2cd 04bf
000003a0: a869 88bd 0ead 04be 993f 973e 5a61 bebd
000003b0: 9b51 293d 10cf d3bd f419 7abc 091e 9bbe
000003c0: 72f8 703d e6c7 49be dd88 b1bc 6a57 89be
000003d0: 2e66 87bd bac4 0c3e e809 433e f7d5 1bbf
000003e0: e409 c63e 0693 353e b686 993d 548a e6bd
000003f0: 7ba9 b83d 95ed 3cbd 1c8c 083d 7cc2 c73c

weight f4 [32]
0.6724268 0.7590362 0.74594766 0.6865005 0.71575195 0.6469687 0.7038435 0.6790023
0.7535395 0.5667003 0.79144347 0.65693754 0.65172786 0.591457 0.54890513 0.65054727
0.7654694 0.58136666 0.631811 0.72933376 0.7083442 0.66653186 0.6846084 0.7159759
0.64807177 0.75763625 0.71995 0.6016319 0.6230716 0.59985936 0.6899659 0.69809806
00000000: 2a24 2c3f 3250 423f 6df6 3e3f 7fbe 2f3f
00000010: 853b 373f be9f 253f 162f 343f 18d3 2d3f
00000020: f7e7 403f 4513 113f 0a9c 4a3f 0f2d 283f
00000030: a3d7 263f ba69 173f 0c85 0c3f 448a 263f
00000040: cdf5 433f 72d4 143f 5ebe 213f 9eb5 3a3f
00000050: 0c56 353f d5a1 2a3f 7f42 2f3f 324a 373f
00000060: 08e8 253f 73f4 413f a54e 383f 8c04 1a3f
00000070: 9f81 1f3f 6290 193f 9ba1 303f 8eb6 323f

bias f4 [32]
-0.26172772 0.06799412 0.15721895 -0.005020154 0.10233862 0.15179308 -0.0027833697 -0.033702757
0.19604886 -0.22388384 0.18776758 0.05556475 0.23647727 -0.025720634 -0.16722538 -0.15659934
-0.08930376 -0.22634752 -0.013974697 0.123189405 0.13222714 -0.13185363 0.020221803 0.07310455
0.025057178 0.31533408 -0.015339712 0.022935813 0.10823074 -0.025984315 0.12042607 0.07898329
00000000: 2d01 86be 8040 8b3d 01fe 203e 1b80 a4bb
00000010: e996 d13d a56f 1b3e 3269 36bb e70b 0abd
00000020: 08c1 483e ce41 65be 2546 403e dd97 633d
00000030: 1927 723e 14b4 d2bc 213d 2bbe 945b 20be
00000040: e4e4 b6bd a5c7 67be 21f6 64bc ba4a fc3d
00000050: 8d66 073e a304 07be 32a8 a53c d7b7 953d
00000060: b644 cd3c 7873 a13e 6a53 7bbc e3e3 bb3c
00000070: 14a8 dd3d 0fdd d4bc f2a1 f63d fec1 a13d

running_mean f4 [32]
0.7532949 0.6371981 0.81908613 0.4641324 0.5562388 1.1191148 0.9352944 0.45729604
0.5932834 0.6897473 0.7476698 1.0479349 1.493666 0.5220586 1.0044883 0.43178245
0.8997321 0.6419386 0.9467901 0.5056181 0.433464 0.5192172 0.44128937 0.41636053
0.49991277 1.2271261 0.58347 0.4364322 1.7414453 1.2872319 0.5966962 0.55302197
00000000: efd7 403f 6a1f 233f a1af 513f c3a2 ed3e
00000010: aa65 0e3f 273f 8f3f 746f 6f3f b522 ea3e
00000020: 6ce1 173f 4793 303f 4a67 3f3f bb22 863f
00000030: 7330 bf3f a2a5 053f 1393 803f 9712 dd3e
00000040: d854 663f 1756 243f d660 723f 3070 013f
00000050: feee dd3e 6beb 043f aef0 e13e 352d d53e
00000060: 91f4 ff3e 7812 9d3f 4a5e 153f 0b74 df3e
00000070: aee7 de3f 04c4 a43f 15c1 183f d992 0d3f

running_var f4 [32]
1.0512853 1.501075 1.8351672 1.0434536 1.2819092 1.4003556 1.9772289 1.0648379
1.5219656 1.296579 2.3269358 0.9164811 1.9857318 1.1585958 0.97543085 0.78366256
0.98425233 0.7450247 1.547892 1.2330773 0.9557373 1.1641252 0.9354211 0.99840313
0.6956184 2.0168524 1.4580156 1.0142914 2.7536905 1.3157195 1.4502399 1.1991435
00000000: 8490 863f 3a23 c03f c2e6 ea3f e38f 853f
00000010: 9a15 a43f da3e b33f d615 fd3f 9c4c 883f
00000020: c5cf c23f 4df6 a53f 84ec 1440 819e 6a3f
00000030: 762c fe3f de4c 943f d6b5 793f 1c9e 483f
00000040: f6f7 7b3f f0b9 3e3f 5321 c63f 7ad5 9d3f
00000050: 33ab 743f 0e02 953f c277 6f3f 5997 7f3f
00000060: 0c14 323f 1c14 0140 41a0 ba3f 4dd4 813f
00000070: 773c 3040 7f69 a83f 76a1 b93f 897d 993f

weight f4 [32, 1, 3, 3]
0.023779377 -0.46249726 -0.30262753 -0.037101828 -0.5210336 -0.31224558 0.26983938 0.066472694
0.13481301 0.0072753523 -0.11170923 -0.10784599 -0.0013235249 -0.36832592 -0.3606655 -0.007157101
-0.48590648 -0.42617813 -0.2153892 0.00563405 -0.20670056 0.11489605 0.47405997 0.14967753
0.23266304 0.67583376 0.28130603 0.19826849 0.20160845 0.09473935 0.18855576 0.45284405
0.29283154 0.041305944 0.24862763 0.19965121 0.0052035837 0.047306847 -0.014772074 0.22179924
0.49444506 0.44715017 0.092419595 0.3065272 0.2139268 0.035349917 0.34608325 0.3363001
0.005201984 0.43028736 0.49404854 -0.03586854 -0.24398677 -0.061404355 -0.2237011 -0.40715092
-0.17302217 -0.16816762 -0.39689463 -0.40095034 0.08684421 -0.065457895 -0.08338102 -0.016038299
0.06947936 -0.0016777595 0.0033951125 0.38482553 0.4150253 0.014721167 0.35837784 0.41687992
0.11011305 0.22705306 0.12790424 0.2786164 0.52587694 0.33615547 0.08369389 0.2530895
0.14609903 0.031270042 0.19396317 0.10364157 0.14846684 0.4114602 0.22532472 0.16476901
0.3179052 0.26894096 0.096225105 0.042762406 0.102832854 -0.029137084 -0.45006067 -0.38075018
-0.09626941 -0.5806866 -0.49251392 0.18092267 -0.061470922 -0.2730513 0.54262125 0.12779516
-0.5169985 0.36259258 0.16937946 -0.23619615 0.15321645 0.05330657 -0.15158142 0.16143496
-0.47087905 -0.61561275 0.013834721 -0.32219574 -0.22933802 0.054309983 0.17289546 -0.1520047
0.2938098 0.34725395 0.03297476 0.3320299 0.35664162 0.10131141 -0.029764358 0.0745762
0.051093616 0.18298985 0.5263643 0.33892304 0.08445988 0.12247856 0.12421212 -0.13911168
-0.21021838 -0.081712976 -0.36085358 -0.41234607 -0.17631769 -0.2896121 -0.18222447 0.030348014
-0.47498408 -0.4983606 0.013725278 -0.3820086 -0.08728081 0.40666953 0.1362034 0.55671793
0.26063284 0.06417863 0.090502284 0.0068998155 0.23142245 0.3751782 0.21188144 0.2804196
0.38774735 0.1418409 0.1901642 0.14575572 -0.1097588 0.29082957 0.4611638 0.14313619
0.111071356 0.2805335 0.24076088 0.09186915 0.085774966 0.1563724 -0.19631836 -0.39925185
-0.14374653 -0.23959415 -0.6042594 -0.3605382 0.06705594 0.24956107 0.0785865 0.24097468
0.5304829 0.27681538 0.11823548 0.200859 0.00023768519 -0.0824571 0.02450688 0.14434044
-0.18685888 -0.35753223 -0.13814318 -0.09489238 -0.4827829 -0.4545256 0.20611686 0.27840108
-0.01708825 0.4037448 0.46713108 0.17524578 0.13773085 0.14729804 0.030646613 0.02519383
-0.072640136 -0.017990628 -0.18838482 -0.3837841 -0.2740171 -0.15194407 -0.42881948 -0.33625472
0.077550985 -0.0060532102 -0.038885817 0.071509436 -0.39822453 -0.372567 -0.0950149 -0.42915455
-0.33266035 0.024719533 0.39984906 0.24525706 -0.36412176 0.27563152 0.75842434 -0.20867258
-0.20326999 0.21983254 -0.024957428 0.14261377 0.12545253 0.17438233 0.40733343 0.4033447
0.076968856 0.28705513 0.34885016 -0.04923407 -0.14906323 -0.047133837 -0.175096 -0.42958528
-0.26989657 -0.1928667 -0.27998304 -0.17316501 -0.11439697 -0.019616766 0.17439407 -0.27042586
00000000: f8cc c23c 71cc ecbe fff1 9abe 16f8 17bd
00000010: 7562 05bf a7de 9fbe 6328 8a3e d622 883d
00000020: 6c0c 0a3e 1466 ee3b cfc7 e4bd 5cde dcbd
00000030: 207a adba 3795 bcbe 26a9 b8be 1d86 eabb
00000040: bcc8 f8be 0534 dabe fd8e 5cbe d69d b83b
00000050: 50a9 53be 9f4e eb3d fdb7 f23e 1145 193e
00000060: 383f 6e3e 7103 2d3f 5807 903e e506 4b3e
00000070: 7272 4e3e b406 c23d c314 413e 2ddb e73e
00000080: 04ee 953e 6c30 293d 3e98 7e3e 5e71 4c3e
00000090: d382 aa3b d3c4 413d 9206 72bc 571f 633e
000000a0: e727 fd3e def0 e43e 7c46 bd3d 22f1 9c3e
000000b0: a10f 5b3e 13cb 103d d331 b13e 872f ac3e
000000c0: 6875 aa3b a04e dc3e eef3 fc3e e4ea 12bd
000000d0: abd7 79be 2283 7bbd e711 65be 1676 d0be
000000e0: b92c 31be 2234 2cbe c635 cbbe 5d49 cdbe
000000f0: 61db b13d ca0e 86bd abc3 aabd c062 83bc
00000100: 324b 8e3d 44e8 dbba 8980 5e3b da07 c53e
00000110: 327e d43e 0d31 713c 4d7d b73e 4971 d53e
00000120: f382 e13d 9980 683e 54f9 023e cfa6 8e3e
00000130: df9f 063f 921c ac3e b467 ab3d f294 813e
00000140: fc9a 153e 0415 003d 489e 463e 0842 d43d
00000150: b107 183e e9aa d23e 86bb 663e 35b9 283e
00000160: 78c4 a23e a1b2 893e ab11 c53d a227 2f3d
00000170: 089a d23d e5b0 eebc 5a6e e6be b0f1 c2be
00000180: e528 c5bd e1a7 14bf c92a fcbe cb43 393e
00000190: efc8 7bbd 61cd 8bbe 3ae9 0a3f bcdc 023e
000001a0: 045a 04bf bca5 b93e cf71 2d3e 67dd 71be
000001b0: c6e4 1c3e fd57 5a3d 2938 1bbe 354f 253e
000001c0: 0f17 f1be cc98 1dbf 07ab 623c d7f6 a4be
000001d0: 96d7 6abe 2574 5e3d 820b 313e 1fa7 1bbe
000001e0: 3d6e 963e 45cb b13e 8b10 073d d3ff a93e
000001f0: bb99 b63e 5b7c cf3d 62d4 f3bc 68bb 983d
00000200: 8a47 513d b161 3b3e d0bf 063f 5287 ad3e
00000210: 4df9 ac3d 0ad6 fa3d ed62 fe3d 4b73 0ebe
00000220: 7d43 57be 2259 a7bd cdc1 b8be 061f d3be
00000230: a08c 34be 0a48 94be 0d99 3abe 669c f83c
00000240: 1d31 f3be 1f29 ffbe fddf 603c a296 c3be
00000250: 48c0 b2bd fd36 d03e e778 0b3e 1185 0e3f
00000260: ab71 853e 1670 833d 4359 b93d d917 e23b
00000270: 02fa 6c3e 5b17 c03e 73f7 583e 2893 8f3e
00000280: d286 c63e be3e 113e 67ba 423e fd40 153e
00000290: 39c9 e0bd 9de7 943e a91d ec3e 4b92 123e
000002a0: 6179 e33d 16a2 8f3e 058a 763e e525 bc3d
000002b0: c9aa af3d 1620 203e ae07 49be bd6a ccbe
000002c0: 4a32 13be 2b58 75be beb0 1abf 7798 b8be
000002d0: a054 893d f08c 7f3e f5f1 a03d 11c2 763e
000002e0: bacd 073f bfba 8d3e 7125 f23d fbad 4d3e
000002f0: 223b 7939 45df a8bd a7c2 c83c fbcd 133e
00000300: ef57 3fbe 770e b7be 6875 0dbe f056 c2bd
00000310: 522f f7be 94b7 e8be 4c10 533e 968a 8e3e
00000320: a8fc 8bbc a3b7 ce3e ce2b ef3e a173 333e
00000330: 5109 0d3e 4cd5 163e 9b0e fb3c 4a63 ce3c
00000340: 5ac4 94bd 1561 93bc f3e7 40be 597f c4be
00000350: f84b 8cbe 3a97 1bbe 3a8e dbbe 9429 acbe
00000360: 0dd3 9e3d 025a c6bb bc46 1fbd 8a73 923d
00000370: 16e4 cbbe 1ac1 bebe 2c97 c2bd 25ba dbbe
00000380: 7552 aabe 9e80 ca3c 04b9 cc3e ab24 7b3e
00000390: 2b6e babe 931f 8d3e 1928 423f 44ae 55be
000003a0: 0226 50be c81b 613e 8573 ccbc 5809 123e
000003b0: a176 003e 4891 323e 028e d03e 3283 ce3e
000003c0: d9a1 9d3d e4f8 923e 7d9c b23e aaa9 49bd
000003d0: 08a4 18be 690f 41bd 5e4c 33be 9af2 dbbe
000003e0: e22f 8abe d97e 45be f059 8fbe 2b52 31be
000003f0: f548 eabd 57b3 a0bc 5c94 323e 4275 8abe

weight f4 [64, 32, 1, 1]
0.16746531 0.2916393 0.15940422 -0.107387625 0.21599078 0.38379788 -0.037503425 0.105591305
0.036637593 0.23321652 -0.2122134 0.13873057 -0.21297695 0.0026156034 0.23327695 -0.032810207
0.032540776 -0.2338153 -0.24110974 -0.06855994 0.17471519 -0.080342226 0.13961728 0.17130648
0.16128515 0.11266547 -0.1299665 -0.29351148 -0.3582847 -0.25168708 -0.035210453 0.051719397
-0.12189128 -0.15223143 -0.26910514 -0.5305372 0.12588756 0.043275304 0.34833 0.30807906
-0.1869157 0.09628882 -0.12531325 0.008024983 -0.15687674 -0.21460527 0.23243952 0.25565195
0.11043061 0.14416438 -0.14981999 0.38238364 0.27834693 0.02058977 0.07794938 0.21226487
-0.26932716 0.007848876 -0.3885433 -0.24653187 -0.012982766 -0.28158692 0.13672735 -0.049812462
-0.16739067 -0.36087966 -0.28895655 0.11424735 0.10034672 0.08235441 0.13286674 0.19668114
0.24889614 0.00827364 -0.16045772 -0.18578649 0.236397 0.17675824 -0.14595069 -0.096574694
-0.027777435 -0.30721387 0.032686602 -0.17801349 0.056304205 -0.12945418 0.23597704 -0.103359655
0.117550194 0.07685363 0.06945917 -0.20377843 0.09242289 -0.28754866 -0.07937109 0.13866106
-0.07487927 -0.11969491 -0.26555777 -0.08634362 0.10144619 -0.011882404 0.70693904 -0.07578342
0.10503254 0.1675341 0.11795987 0.041811943 -0.22906579 0.28804958 -0.043420017 0.04013416
0.13592552 0.09677633 -0.34684706 0.11469779 0.16038877 0.06360213 0.09018794 -0.08861791
0.17828208 0.05568462 -0.09163728 0.26808774 0.27882808 -0.19672698 0.0382704 -0.101278715
0.15284336 0.2349682 -0.006827869 0.38464078 -0.188758 -0.07430048 0.25652406 -0.42539936
-0.14424379 0.016650902 -0.017099086 0.0051857764 -0.092867665 0.15188792 0.0011937155 0.010457881
-0.25632516 -0.13448633 -0.13960508 0.149453 -0.019047985 0.28222328 0.21340866 -0.24198651
0.14321716 0.16551957 -0.2151299 -0.080708854 0.0374319 -0.10529609 -0.09445346 0.13051784
0.17507307 0.25917155 -0.14023213 0.3528591 -0.19601618 0.06985599 0.111627564 0.0074332263
-0.37354973 0.043405186 -0.22397679 -0.0015534121 -0.06320781 0.00866535 0.010103047 -0.31851462
0.0819238 -0.12455841 -0.06407717 0.42438066 -0.5933145 0.599886 -0.044303577 -0.5049817
-0.22868922 0.043623246 -0.4024462 -0.048403073 0.10702028 0.28771314 -0.10610782 -0.11079831
-0.24559402 0.021311231 -0.31783873 0.22232354 -0.0867304 -0.23423359 0.19542757 -0.27877453
0.001327822 0.2901265 -0.105669774 0.21295501 -0.041547917 -0.038118478 0.09144368 -0.03640618
-0.06037052 -0.2246244 -0.35776156 -0.062114056 0.050327662 -0.14389074 -0.053037073 -0.2546993
0.29017696 -0.06288177 0.39311743 0.109438375 -0.04405591 -0.13015603 0.16745183 -0.44041768
-0.18702793 0.11959245 0.25442848 -0.017709238 0.010242241 -0.6278116 0.42860222 0.102123775
-0.09857347 0.07291966 0.1293663 0.040160775 -0.1651781 0.059901115 -0.279264 0.02430661
0.43309268 0.27232727 -0.06297453 0.17511524 0.06883055 0.14020588 -0.053401615 0.03308306
0.25704208 0.019766679 0.020622715 -0.21812333 -0.23361301 -0.08881128 0.099170364 -0.17286713
00000000: 077c 2b3e bf51 953e dc3a 233e 0bee dbbd
00000010: b02c 5d3e 2881 c43e 319d 19bd 4140 d83d
00000020: 4d11 163d 50d0 6e3e 784e 59be 630f 0e3e
00000030: a116 5abe 8b6a 2b3b 27e0 6e3e ff63 06bd
00000040: 7a49 053d 476d 6fbe 79e5 76be 2769 8cbd
00000050: 8ae8 323e 778a a4bd d5f7 0e3e f76a 2f3e
00000060: ef27 253e 27bd e63d f015 05be 2347 96be
00000070: 1871 b7be 21dd 80be d638 10bd b8d7 533d
00000080: 23a2 f9bd 8ee2 1bbe 26c8 89be 49d1 07bf
00000090: abe8 003e 7241 313d 4f58 b23e 8abc 9d3e
000000a0: d466 3fbe 1333 c53d 1e52 00be 387b 033c
000000b0: 4ca4 20be 7cc1 5bbe a004 6e3e d0e4 823e
000000c0: 7229 e23d d49f 133e 696a 19be cac7 c33e
000000d0: 7d83 8e3e e1ab a83c eda3 9f3d f65b 593e
000000e0: 40e5 89be 9298 003c 26ef c6be da72 7cbe
000000f0: abb5 54bc 292c 90be 4102 0c3e 2708 4cbd
00000100: 7668 2bbe 38c5 b8be 1df2 93be 84fa e93d
00000110: 9582 cd3d 6ea9 a83d 380e 083e c866 493e
00000120: a1de 7e3e 298e 073c 074f 24be d03e 3ebe
00000130: 0e12 723e 1d00 353e 1974 15be f4c8 c5bd
00000140: 818d e3bc 234b 9dbe 63e2 053d 2b49 36be
00000150: 3d9f 663d a38f 04be f7a3 713e 3aae d3bd
00000160: 28be f03d 7065 9d3d 9c40 8e3d 4bab 50be
00000170: 3648 bd3d 9439 93be 4f8d a2bd 2afd 0d3e
00000180: 4d5a 99bd 9b22 f5bd 30f7 87be edd4 b0bd
00000190: 05c3 cf3d 6aae 42bc f5f9 343f 5634 9bbd
000001a0: 4d1b d73d 0f8e 2b3e f294 f13d 0043 2b3d
000001b0: 3990 6abe 3c7b 933e 30d9 31bd b863 243d
000001c0: 0f30 0b3e ab32 c63d f095 b1be ade6 ea3d
000001d0: f43c 243e d541 823d 74b4 b83d 4f7d b5bd
000001e0: 948f 363e 8e15 643d 54ac bbbd cc42 893e
000001f0: 8ec2 8e3e cc72 49be 6cc1 1c3d 376b cfbd
00000200: f882 1c3e 819b 703e 51bc dfbb a3ef c43e
00000210: c749 41be da2a 98bd 1f57 833e f2cd d9be
00000220: a5b4 13be 7967 883c 6213 8cbc 72ed a93b
00000230: 6731 bebd 8288 1b3e 7276 9c3a 8857 2b3c
00000240: 0d3d 83be c9b6 09be a2f4 0ebe 350a 193e
00000250: 850a 9cbc 927f 903e cd87 5a3e 50cb 77be
00000260: 85a7 123e f67d 293e 034b 5cbe af4a a5bd
00000270: 3152 193d 7aa5 d7bd d170 c1bd 78a6 053e
00000280: 5b46 333e 22b2 843e 0399 0fbe f3a9 b43e
00000290: 77b8 48be a810 8f3d fe9c e43d 6c92 f33b
000002a0: e941 bfbe a3c9 313d 2c5a 65be dc9b cbba
000002b0: 1973 81bd 1df9 0d3c 4087 253c 5914 a3be
000002c0: aac7 a73d 7b18 ffbd e43a 83bd 6c48 d93e
000002d0: 76e3 17bf 2192 193f ab77 35bd 7b46 01bf
000002e0: 822d 6abe 4aae 323d 6e0d cebe 4d42 46bd
000002f0: 732d db3d 234f 933e 0f4f d9bd 39ea e2bd
00000300: 007d 7bbe e494 ae3c c2bb a2be c8a8 633e
00000310: b59f b1bd eeda 6fbe 2a1e 483e 89bb 8ebe
00000320: 500a ae3a 768b 943e 6569 d8bd e110 5a3e
00000330: 262e 2abd 1f22 1cbd d346 bb3d a61e 15bd
00000340: 1447 77bd f003 66be 862c b7be 4f6b 7ebd
00000350: 6124 4e3d 1858 13be 673d 59bd f267 82be
00000360: 1392 943e 28c8 80bd b046 c93e 3a21 e03d
00000370: f873 34bd 9f47 05be 7e78 2b3e 6d7e e1be
00000380: 4084 3fbe e3ec f43d 7344 823e f712 91bc
00000390: 13cf 273c 43b8 20bf c071 db3e 4526 d13d
000003a0: e3e0 c9bd e756 953d 9978 043e a07f 243d
000003b0: 7324 29be df5a 753d b1fb 8ebe a81e c73c
000003c0: 53be dd3e 7b6e 8b3e caf8 80bd 6951 333e
000003d0: 08f7 8c3d 2192 0f3e a7bb 5abd 1a82 073d
000003e0: 059b 833e bbed a13c f8f0 a83c b95b 5fbe
000003f0: 4038 6fbe b0e2 b5bd d519 cb3d 1504 31be
